src/Backtesting/checkpoints/autoencoder/best_encoder.pth (torch, 7631 bytes, 4 tensors)

0.weight f4 [128, 1]
00000000: b88a 8cbd d43d abbe c45c 013f a6e6 26bf
00000010: 6274 7cbf d053 0c3f 8941 6fbf 2073 7e3e
00000020: 9a68 963e 1cf9 063c f0f8 da3d b87a fe3e
00000030: 17c5 02bf 228d 873b 0cee 30bf 06b8 43bf
00000040: 20c3 27be 0807 42bf ce43 9dbe 129b 243f
00000050: b013 bc3d 1a81 8b3e 38ce 003e 3e31 373f
00000060: b682 49bf 09f0 373f ffaf 0e3f 69a9 753e
00000070: 8a8d f7be 2cc4 423f 44e1 143f 88e8 6f3e
00000080: 4c0a 13bf 0458 2c3f 6519 61bf 4dd0 f8be
00000090: 8e1f 2f3f 9d45 513f f96a 3c3f d0e9 6abf
000000a0: ce42 49bf fc7c 6b3f 95e2 0ebf e700 25bf
000000b0: 27d0 c5be 7e27 6e3f a372 da3e b8c3 9b3e
000000c0: 57e6 253f d03e 70be db3c 673f ce64 66bf
000000d0: 44f3 cf3e 909b a9bd 39a4 2a3e 6784 763f
000000e0: 8205 6a3f 0836 39bf 3c6a 0c3f a5fc ebbe
000000f0: 60d4 243e 0c43 29bf ec10 42bf 1b0a c33e
00000100: 4846 21be 84f0 d63e 6119 ba3e 9221 24bf
00000110: a3a3 3cbf 77fb d7be ea59 6abf 20be 3fbf
00000120: ae57 223f 44b0 50bf 6072 0bbe 6097 453f
00000130: ca49 22bf c945 633f 1cd8 803f 481d 0d3e
00000140: 36b5 e1be 8bc9 fcbe 147f a6be c0e4 993e
00000150: 5331 81be c0be c6bd e57e 3c3f 741d a03e
00000160: 2153 adbd 4073 493f a09d dcbe 2c65 3bbf
00000170: b0cb 343f 0b02 6cbf b8df d2be ec90 6ebf
00000180: 4f14 cbbe a41f 0d3f 0874 12bf a0cc be3e
00000190: 3472 e53e c254 183f fdc2 6bbf 60ac ab3e
000001a0: 541f 22bf 901a 513f 94a9 df3e 8095 54bc
000001b0: 9426 ee3e 8003 13bf 9890 dd3e 1ba7 30be
000001c0: 607f 16bf 80e4 7b3e 0056 dfbe a0f9 623d
000001d0: aa96 953e 8457 1cbf 4000 7f3f f041 353f
000001e0: 90b9 ac3d c66f 533f c83a 503f 8042 923e
000001f0: 24f9 cb3e 99fe fb3e 6021 e3bd 007b 95bc
-0.06862396 -0.3344561 0.50532174 -0.6519569 -0.98615086 0.5481539 -0.93459374 0.24848604
0.2937668 0.008238103 0.10692012 0.49703002 -0.51081985 0.0041366974 -0.6911323 -0.7645267
-0.16383028 -0.7579198 -0.30715793 0.6429912 0.091834426 0.27246934 0.12578666 0.7155951
-0.78715074 0.7185064 0.557373 0.23990406 -0.48350173 0.76080585 0.5815623 0.23428547
-0.57437587 0.673218 -0.87929374 -0.4859642 0.68407524 0.81746846 0.7360073 -0.9176302
-0.7861756 0.91987586 -0.55814487 -0.644545 -0.3863537 0.9302901 0.42665586 0.3042276
0.64804596 -0.23461461 0.90327233 -0.89997566 0.40615284 -0.08281624 0.16664208 0.9629578
0.91414654 -0.7234807 0.548496 -0.4609119 0.1609664 -0.6611793 -0.7580707 0.38093647
-0.15749466 0.41980374 0.36347488 -0.64113724 -0.7368719 -0.4218404 -0.9154345 -0.7489948
0.6341504 -0.8151896 -0.1361785 0.77184105 -0.63393843 0.8877836 1.0065951 0.13780701
-0.44083565 -0.49372515 -0.32518828 0.30057335 -0.25232944 -0.097043514 0.73631126 0.3127247
-0.08463121 0.7869148 -0.43089008 -0.7320125 0.706233 -0.9219062 -0.4118631 -0.93189883
-0.39663932 0.55126405 -0.572083 0.3726549 0.44813693 0.5950433 -0.92094404 0.3352995
-0.6332905 0.81681156 0.43684065 -0.012975097 0.46513808 -0.57427216 0.4327438 -0.17251246
-0.5878811 0.24598885 -0.436203 0.055413842 0.2921651 -0.6107104 0.99609756 0.7080374
0.08433831 0.8259243 0.81339693 0.2856636 0.39838517 0.4921768 -0.1109035 -0.018247128

0.bias f4 [128]
00000000: f50b 1f3f 671c 1a3e ad0f 0f3f dc26 b5be
00000010: 487e 3ebf 78a6 13bf 7966 203f c4cc 86be
00000020: 05c5 563e 6dd2 713f d0f4 97bd c3ff 333f
00000030: 019d dc3e 4dfa 1d3f 0a55 49bf 56c7 20bf
00000040: 645a e3be 66b9 5abf 3349 263f a157 d53e
00000050: 60cf c9be de0e fb3e 24e1 6dbf 7e7b f43e
00000060: ac52 f7be cda6 d63e f98b 063f 0ae9 1f3e
00000070: 76a2 733f c4c9 b2be 70c3 4cbf ee79 54bf
00000080: 98e5 f0be a2d7 1d3f 572c 2f3f 9e8f 953e
00000090: a01d c2bd 6144 b93d bd48 6c3d 3ad3 533f
000000a0: 4624 7f3f ff9e 723e d675 5f3e 2dfa a3bb
000000b0: ba68 7d3f 12c1 0f3f bec5 393f b023 4abe
000000c0: 15c0 7e3f aada 57bf 5870 323f 5089 683f
000000d0: ec69 80be e063 0ebd 885e 1f3f 6a0b 883e
000000e0: 400c 2d3f f511 9f3d 3a3a 52bf 586c 773e
000000f0: f0fc 94be 46c9 5cbf 2456 b1be bdc4 733e
00000100: 10be a2bd 2ebc 76bf 7142 763e 58eb dfbe
00000110: 1f97 c23e a670 df3d b484 23bf 94bd bfbe
00000120: d024 233f c817 313e 542d c9be 2c95 bcbe
00000130: 4a0d 3ebf 0ee4 a73e 50ac 3c3f 6894 09bf
00000140: fc0b 643d d7cb fb3e 4027 fbbd b5d3 223e
00000150: 5c4d 633e 989d 7d3f 435a 0c3f f40a 4cbf
00000160: 14bd 463f 28b8 27bf 80df 5bbe 6095 c7be
00000170: 2380 4e3f 920f 0a3f aca5 5fbf 6061 8ebd
00000180: eab8 6b3f e5fc 723f 18b3 9abe 38fa 3ebf
00000190: 403b 49bd edd3 ae3e dfc7 3e3f 48b8 c1be
000001a0: 3452 54bf 125b 22bf a079 2abd 6c33 32bf
000001b0: e0d0 c0be 8ecf 54bf aabf 55bf ceee 0d3f
000001c0: a071 fbbd c829 09be 2a76 23bf 2cc2 7ebf
000001d0: fd2a b73d fbaf a83e 14a6 e8be 88c0 24be
000001e0: 3041 c8bd 700c fdbd 984d 46be d454 ebbe
000001f0: 1cff 55bf de21 343b 0000 78be 3c4a 6abf
0.6212762 0.15049897 0.55883294 -0.3538121 -0.7441144 -0.57675886 0.6265636 -0.263281
0.20973594 0.9446171 -0.07419741 0.70312136 0.43088534 0.61710054 -0.78645384 -0.6280416
-0.444049 -0.85439146 0.64955443 0.41668418 -0.39416027 0.4903478 -0.9292166 0.47750467
-0.4830526 0.41924134 0.5255733 0.15616241 0.9516977 -0.3491956 -0.79985714 -0.8299855
-0.47050166 0.61657155 0.6842703 0.29211134 -0.09478307 0.09046245 0.057686556 0.8274418
0.99664724 0.23693465 0.21822295 -0.0050041885 0.98987925 0.56153977 0.72567356 -0.19740176
0.99511844 -0.8431803 0.6970267 0.9083452 -0.25080812 -0.034763217 0.6225362 0.26571208
0.67596817 0.07767097 -0.82120097 0.24162424 -0.29099226 -0.8624462 -0.34636033 0.23805518
-0.07946408 -0.9638089 0.24048783 -0.4373424 0.3800592 0.10910158 -0.63874364 -0.37449324
0.63728046 0.17294228 -0.39292395 -0.3683256 -0.7423903 0.3279118 0.7370043 -0.53742075
0.05567549 0.49178955 -0.12263346 0.15901072 0.22197479 0.99068594 0.5482523 -0.79704213
0.7763226 -0.65515375 -0.21471977 -0.38981152 0.8066427 0.5393001 -0.8736217 -0.069521666
0.9207903 0.94917136 -0.30214763 -0.74600554 -0.04912877 0.34146062 0.7452373 -0.37835908
-0.8293793 -0.6342021 -0.041619897 -0.69609714 -0.3765936 -0.83129203 -0.8349558 0.5544251
-0.122775316 -0.13394845 -0.6385218 -0.9951503 0.08943746 0.32946762 -0.45439208 -0.1608907
-0.097780585 -0.12355888 -0.19365537 -0.45963156 -0.8359239 0.0027486007 -0.2421875 -0.9151952

2.weight f4 [8, 128]
00000000: 4b1d 853d e5c8 913d f137 2fbc 8a4e d1bc
00000010: 1600 7d3d 9779 5dbd 4220 9cbd b56e 113d
00000020: 9a25 963d 95ad e43c e9a1 debc ce3d fcbb
00000030: ed9a 503d 6261 81bd bd02 8d3d 2906 7d3d
00000040: 40ac 9f3d 77a1 b93a d0f1 69bd b500 d73b
00000050: d0f1 4d3d 4a80 20bd 7914 b33c a25d 4bbd
00000060: 0b56 afbd d9e6 2fbd 4cec 633d 7b68 a0bd
00000070: fc93 be3d 5432 583d 7322 933c 7df8 4f3d
00000080: 5d6f a23d d1c5 c7bc fafd c4bc d140 aa3c
00000090: d4d9 9ebd 50d7 c9bb d011 82bd 710e f83c
000000a0: 872a 583d 7d87 923d 8518 83bd c213 093d
000000b0: 98d4 6cbc c0dc ad3d 3a48 84bb 98be 73bd
000000c0: fef9 c83d 91ad 99bb a17e 913d 0625 c03d
000000d0: b1fc 80bd a07e afbd efcc 3cbd 2627 ac3d
000000e0: 24be c73d f269 963d 1017 99bd e100 2cbd
000000f0: 3fe9 61bc 8f79 883d 9f7b ea3b ca1d 823d
00000100: 45e3 503d a738 83bc 97a7 0a3d da3e a33d
00000110: f8af cf3c d27d 5a3d d431 48bd ce3b ea3c
00000120: 02a4 c73b 8758 b73c 311a 68bd edd9 473d
00000130: 55ce 4ebd aee8 c43c 2ca1 6fbd 9281 71bd
00000140: a340 c83d b53d ab3d 0aaa a4bc 5753 623d
00000150: f29e 283d 5a3e d93c 14a0 08bd 0a34 b43d
00000160: 5733 ad3c ec15 dfbc 5773 ab3d 5330 aa3d
00000170: 129d a03d 4847 15bc 61c2 923d 8742 8dbd
00000180: c14c b9bc 4ee1 313d 3378 f63b 0e1c 1dbb
00000190: 133c 583d d272 9c3d 1917 75bd 2daf bf3b
000001a0: d193 9ebd 5383 abbd c6c5 88bd 69b7 6d3d
000001b0: e452 5ebc 49d1 5a3d 45b5 983d c793 dfbc
000001c0: e346 f03c 5a00 03bd 0e7f 863d d4bd d8bc
000001d0: 9d80 84bd 5ec7 1d3d 41e8 11bc bba7 bb3c
000001e0: 8fc3 1ebd effb b43c 5d28 d0bb 9598 2cbc
000001f0: 3cb1 23bd 1803 a73d 6de8 b3bd 9abe 83bd
00000200: 32bc 363d 884c 81bd cfbf 3abd 7f53 003d
00000210: 5c5f 9d3d 0773 39bd 66ce 50bd fc76 17bd
00000220: ae6a a7bd 1de4 9f3d 3bab a43c 442a 933d
00000230: 4d38 18bb 5fd3 2cbd a552 d2ba 424b 933d
00000240: 5f0d 023c 3c26 79bd b0cd 84bd d393 9ebd
00000250: 88f5 a63c e42d e43c 23e0 a8bd bef7 813d
00000260: 60d6 b7bc 4d58 843d 8a42 b43c a397 2d3d
00000270: 6f0f 893c ede2 a53d f3fc 893d 7997 683d
00000280: 4290 01ba d6c5 613d aff3 1ebd 29dd 913b
00000290: 87e2 6cbd 39e5 b3bc 5b6f ab3d 2769 0cbc
000002a0: 9a1d 6bbd 4404 69bd 55fa 5a3d d027 903d
000002b0: 2ad4 70bd df12 5f3c 4843 a1bc 5391 02bd
000002c0: 4b51 c2bc ea50 51bd 2462 2b3d f6ef 6cbd
000002d0: db6f dfbc 6bbf 2c3d 5bd1 853d a9a0 97bd
000002e0: 7a5d 163d 94b5 3cbd 675e 563d df25 a8bd
000002f0: 3f56 c13c 4737 e13b a0ab 4f3d 5b5e a4bd
00000300: 6c77 2dbd f70e ef3c 1ab5 913d aa48 9b3d
00000310: cb53 11bd 6408 863d 9c20 f13c c8e2 0f3b
00000320: 08f7 953d 2061 293d 3710 533d b1dc 53bd
00000330: 2582 5c3d 3622 a33c 7dc4 abbd f5c7 3f3d
00000340: 7f1c 783d 78e5 0fbd 2e45 8e3d a02a b9bc
00000350: ac57 873d 58d8 edbb 8b72 13bd 96e5 873c
00000360: 10c6 f33c 3b88 19bd dbd4 0ebd 77bf a43d
00000370: 9f1a 493d 4565 9fbd 2d2f 8abd f4a2 b7bc
00000380: e64d 8c3d cbf6 c33c 43e8 9cbc 0b83 533d
00000390: 9a18 af3d 49f7 c6bc e0bf 34bc 9850 a9bd
000003a0: 586c a8bd 264a 953c fa6c babc 0f5f 57bb
000003b0: 15f6 81bd 0ff2 fbbc 7047 14bb 9898 58bd
000003c0: 96ed 35bd 7a3a 01bc c88c 813d 2aca f0bc
000003d0: 0a22 57bd 44ce dd3b d867 40bd 5eb1 e03a
000003e0: 13d2 03bd 54f1 1f3d 39ff 3d3d 4e83 9f3d
000003f0: 5ef7 a8bd 7430 92bd 8cd9 97bb 9124 f9bc
0.06499728 0.07118396 -0.01069449 -0.025550146 0.06176766 -0.054071035 -0.0762334 0.03550597
0.07331391 0.027914802 -0.027176814 -0.0076977974 0.050929 -0.063174024 0.06885288 0.061773453
0.07796526 0.00141625 -0.057115376 0.0065613636 0.05027944 -0.039184846 0.021860348 -0.049649842
-0.08561333 -0.042944763 0.055645272 -0.07832428 0.093055695 0.05278237 0.017960763 0.050774086
0.07931397 -0.024386318 -0.024046887 0.02078286 -0.07756391 -0.0061597005 -0.06351054 0.030280324
0.052774932 0.071547486 -0.06401161 0.03346611 -0.014454983 0.0848937 -0.0040369304 -0.059507936
0.09813307 -0.00468988 0.07104231 0.09382062 -0.06298197 -0.08569074 -0.046093877 0.084059045
0.09753063 0.07344426 -0.07475102 -0.041993026 -0.01378852 0.066638105 0.00715585 0.06353338
0.05099799 -0.016018225 0.033851232 0.07970972 0.025352463 0.053342648 -0.048875645 0.02859297
0.0060925493 0.02238108 -0.056665603 0.048791815 -0.050489742 0.024036732 -0.058503315 -0.05896146
0.097779535 0.08361379 -0.020100612 0.05525526 0.041167207 0.02651899 -0.033355787 0.08798988
0.021142645 -0.027232133 0.08371609 0.08309998 0.07842459 -0.009111233 0.07165981 -0.06897455
-0.022619607 0.043427758 0.007521653 -0.002397302 0.052791666 0.07639088 -0.05983648 0.00584974
-0.077430375 -0.083746575 -0.06678347 0.05803624 -0.013569567 0.053422246 0.074564494 -0.027292145
0.029330676 -0.031982757 0.065672025 -0.026457705 -0.064698435 0.03852021 -0.008905471 0.022907129
-0.038760718 0.022092788 -0.006352468 -0.010534425 -0.039963946 0.08154887 -0.08784566 -0.06432839
0.04461307 -0.06313425 -0.04559308 0.031329628 0.07684204 -0.045275714 -0.050978087 -0.036978707
-0.081746444 0.07807181 0.02010118 0.07185796 -0.0023226917 -0.042193767 -0.0016046359 0.07192089
0.007937758 -0.06082748 -0.06484544 -0.07743039 0.02038075 0.027853914 -0.08245876 0.06346081
-0.02244109 0.064621545 0.022004385 0.04238094 0.016730992 0.08099923 0.06737699 0.05678508
-0.00049424556 0.05512031 -0.038806614 0.004451413 -0.05783322 -0.021959888 0.08370849 -0.008569992
-0.057401277 -0.056888834 0.05346139 0.07038844 -0.058796085 0.013615339 -0.019685403 -0.031876873
-0.023720404 -0.051102556 0.04184164 -0.057846032 -0.027275017 0.042174738 0.06534072 -0.0740369
0.03671024 -0.046071604 0.052336123 -0.08210348 0.023600696 0.0068730447 0.050700784 -0.080258094
-0.042350218 0.02918194 0.071146205 0.07582219 -0.0354803 0.06544569 0.029434495 0.002195524
0.07322508 0.04135239 0.051529136 -0.05172414 0.053835053 0.019913774 -0.083870865 0.046821553
0.06057405 -0.035130948 0.06946789 -0.022603333 0.06608519 -0.007258456 -0.03599791 0.016588967
0.02975753 -0.037483435 -0.034870964 0.080443315 0.049097653 -0.077829875 -0.06747279 -0.02241657
0.068507954 0.023921391 -0.01915372 0.051638644 0.08549614 -0.024287837 -0.011032075 -0.08267325
-0.0822379 0.018223833 -0.022757042 -0.0032863056 -0.063457645 -0.030755071 -0.0022625588 -0.0528799
-0.044416033 -0.007887477 0.0632568 -0.029393274 -0.052522697 0.0067689735 -0.046974033 0.0017142703
-0.032182764 0.039048508 0.046385977 0.07788716 -0.082503065 -0.07138148 -0.004634088 -0.030412944

2.bias f4 [8]
00000000: 3e92 233c d2c2 113d 5ff1 6d3d 605d 7b3b
00000010: 9d27 d23c a29e fd3b bc83 7b3d d874 64bc
0.009983597 0.035586186 0.058091518 0.0038355216 0.025653655 0.007739858 0.06140493 -0.013943873
