src/UI/best_model.pt (torch, 137269 bytes, 13 tensors)

cnn.0.weight f4 [32, 5, 3]
0	0xba5e567c	-0.0008481515
1	0x3de2f4d1	0.11081851
2	0x3dbbbd50	0.09166968
3	0x3e7468fe	0.23868176
4	0x3d8939df	0.06700491
5	0x3d8f4fdb	0.06997653
6	0x3e41b816	0.1891788
7	0xbe4e54d5	-0.20149548
8	0xbe305b1e	-0.17222258
9	0xbd1cdafa	-0.03829477
10	0xbe204062	-0.1564956
11	0xbe0346a1	-0.12819912
12	0x3e292518	0.16518056
13	0xbe0d0a63	-0.13773493
14	0x3d3d04e1	0.04614723
15	0xbcb6ce01	-0.022315027
16	0xbd0bbc72	-0.034115262
17	0xbc37bd8a	-0.011214623
18	0xbdd70119	-0.10498256
19	0xbdcb5e53	-0.099301
20	0xbbe76515	-0.0070616105
21	0x39fb0710	0.00047879713
22	0x3e59197f	0.21201132
23	0xbb94d374	-0.0045418087
24	0x3de5d453	0.11222138
25	0xbca72332	-0.020402525
26	0x3deb8994	0.1150085
27	0x3dba4e1e	0.09096931
28	0x3e3a42d8	0.18189561
29	0x3deb1d1f	0.11480164
30	0xbdcf7c69	-0.10131151
31	0xbd7a4a05	-0.061105747
32	0xbdc01f4b	-0.09380969
33	0x3e095671	0.13411881
34	0xbe8214f6	-0.25406617
35	0x3e37d00e	0.1795046
36	0x3e396b21	0.18107273
37	0x3d1aaff5	0.037765462
38	0xbd8de950	-0.069292665
39	0xbe60298d	-0.2189085
40	0xbd292d0f	-0.041302737
41	0x3e6666d8	0.2250017
42	0xbd99a957	-0.07503002
43	0xbda5ded8	-0.08099145
44	0xbca8cf70	-0.020606726
45	0x3d5274d4	0.051380947
46	0x3e680c3a	0.22660914
47	0xbe40089c	-0.18753284
48	0xbd277c5f	-0.040890094
49	0xbe36033b	-0.1777467
50	0xbdfe6945	-0.12422422
51	0x3e808de5	0.25108257
52	0xbdee5e25	-0.116390504
53	0x3d77485a	0.060371734
54	0x3df6e42a	0.120552376
55	0x3e79db01	0.2439995
56	0x3e2655f2	0.16243723
57	0x3e409b3e	0.1880922
58	0xbe22a537	-0.15883337
59	0x3e13ed80	0.14446068
60	0xbd8e3497	-0.069436245
61	0xbe2dd769	-0.16976704
62	0xbe688a39	-0.22708978
63	0x3e7396e8	0.23788035
64	0xbe60602e	-0.2191169
65	0x3d8e1d89	0.06939227
66	0x3e75afbf	0.23992823
67	0x3d03ae8c	0.032148883
68	0xbddc88bc	-0.107682675
69	0x3e2501f6	0.1611403
70	0xbe1705c4	-0.14748293
71	0xbdff0e17	-0.12453859
72	0xbdb8519f	-0.08999943
73	0xbe364cba	-0.17802706
74	0xbdc77a15	-0.09740082
75	0xbe3670e9	-0.1781651
76	0xbe433433	-0.19062881
77	0xbe397159	-0.18109645
78	0x3e0dec55	0.13859685
79	0x3d8312e1	0.06400085
80	0xbe625a15	-0.22104676
81	0x3e0295d8	0.12752473
82	0x3e81a816	0.25323552
83	0xbe4ecce3	-0.20195346
84	0xbd8af590	-0.067851186
85	0xbe147cbc	-0.14500707
86	0x3e6e34a9	0.23262276
87	0xbce712a5	-0.028207133
88	0x3e1c834f	0.15284465
89	0xbe476f72	-0.19476107
90	0xbe2941d3	-0.16529016
91	0x3e458f1e	0.19292876
92	0x3e102398	0.14076078
93	0x3e732e92	0.23748234
94	0xbe070eb8	-0.13189209
95	0x3badd132	0.005304479
96	0xbe009264	-0.12555844
97	0x3e4cc3e6	0.19996604
98	0x3da43870	0.08018577
99	0xbe4d4729	-0.20046677
100	0x3dc02836	0.0938267
101	0xbe24f2ed	-0.16108294
102	0x3c0e9db0	0.008704588
103	0x3e259c5a	0.16172925
104	0xbd93221e	-0.07184242
105	0xbdbf65cb	-0.09345587
106	0xbe3abe2f	-0.18236612
107	0xbe53a63d	-0.20668884
108	0xbde2c92b	-0.11073526
109	0x3e2ac156	0.16675314
110	0x3df03a06	0.11729817
111	0xbe204ed7	-0.15655075
112	0x3deb0e7a	0.114773706
113	0xbe58f649	-0.211877
114	0xbe0080ce	-0.12549135
115	0xbe0489aa	-0.1294314
116	0x3cb30021	0.021850647
117	0xbde4934a	-0.11160906
118	0xbe12f808	-0.14352429
119	0x3e503a1e	0.2033467
120	0x3d0c3e2d	0.034238983
121	0xbe586277	-0.21131311
122	0xbdda186f	-0.106491916
123	0x3cff7a7a	0.031186331
124	0xbb68b8a4	-0.0035510445
125	0x3d9416fe	0.07230948
126	0xbe753e42	-0.2394953
127	0x3d07f4e8	0.033192545
128	0x3c1d4b87	0.009600527
129	0x3d8c6d5e	0.06856798
130	0x3e114c7c	0.14189333
131	0x3e1d82a7	0.15381871
132	0x3c8d8b5e	0.01727837
133	0xbd74cdfe	-0.059766762
134	0xbe227e70	-0.15868545
135	0xbe558612	-0.20851925
136	0xbe253fba	-0.16137591
137	0xbe4bbdb5	-0.19896586
138	0xbe25787e	-0.16159245
139	0xbe0a4c7a	-0.13505736
140	0xbd3ceea0	-0.046126008
141	0xbe48ca6c	-0.19608468
142	0xbd5d4183	-0.054017555
143	0xbe7d031a	-0.24708214
144	0x3ded8223	0.11597087
145	0xbddf06fa	-0.108900025
146	0xbd857a4f	-0.06517469
147	0xbc181a2d	-0.009283585
148	0xbcd5fd8e	-0.02612188
149	0x3e1a336e	0.15058681
150	0x3e4ed600	0.20198822
151	0xbe2b3bd5	-0.16722043
152	0x3dcbbad7	0.09947746
153	0x3e8197f3	0.2531124
154	0xbcf33970	-0.029690474
155	0xbe3f39bf	-0.18674372
156	0xbd6a11ef	-0.05714601
157	0xbe49201e	-0.19641158
158	0x3d94293a	0.07234426
159	0xbcacd195	-0.02109603
160	0xbda95a4c	-0.08269176
161	0xbd7edd91	-0.06222302
162	0xbe5a8e5b	-0.21343367
163	0x3e84ac5f	0.2591276
164	0xbe1d4e4a	-0.15361896
165	0x3e3b276d	0.18276758
166	0xbe83646e	-0.2566256
167	0xbe5eba1f	-0.21750687
168	0xbe0fc58b	-0.140402
169	0xbe1effe9	-0.1552731
170	0xbe0933d2	-0.13398674
171	0x3cd51333	0.026010131
172	0x3e4eaffc	0.2018432
173	0xbda86305	-0.082220115
174	0xbdbc733a	-0.09201665
175	0xbd4ea3a9	-0.050449047
176	0xbd98609e	-0.07440303
177	0x3e363cc0	0.17796612
178	0x3e4009de	0.18753764
179	0x3e1d2a5b	0.15348189
180	0x3dc6df04	0.097105056
181	0xbd7e97f2	-0.062156625
182	0x3d80ff72	0.06298722
183	0x3d045d36	0.032315455
184	0xbe2455ef	-0.16048406
185	0xbd08350c	-0.033253714
186	0xbe6cd8bf	-0.23129557
187	0x3dd582ea	0.104253605
188	0xbe28e263	-0.1649261
189	0x3ddb7391	0.10715402
190	0x3e69632e	0.2279174
191	0xbde2de2f	-0.110775344
192	0x3e03939b	0.12849276
193	0x3e20dcb6	0.15709195
194	0xbe6c2519	-0.23061027
195	0x3e7a6bab	0.24455135
196	0x3b6ae164	0.003583991
197	0x3e2a2d61	0.16618873
198	0x3de5bb33	0.11217346
199	0xbd25727c	-0.040392384
200	0x3de360d9	0.111024566
201	0xbe653690	-0.22384095
202	0x3e2eb309	0.17060484
203	0x3df660d2	0.12030186
204	0x3d058f2f	0.032607254
205	0x3e35ea1c	0.17765087
206	0xbe421ec9	-0.18957056
207	0xbe82970c	-0.25505865
208	0x3e6aefde	0.22943065
209	0x3e556131	0.20837857
210	0x3ce91fa1	0.028457465
211	0x3e47ca08	0.19510663
212	0xbe2363f6	-0.15956101
213	0xbe224cb1	-0.15849568
214	0x3dea9c72	0.11455621
215	0xbdb50393	-0.08838572
216	0xbe4849ea	-0.19559446
217	0x3e4d6cce	0.20061037
218	0x3e3a4562	0.1819053
219	0x3db8b292	0.090184346
220	0xbe4db7df	-0.20089673
221	0xbd8036c5	-0.062604465
222	0x3e3873fb	0.18012993
223	0xba391780	-0.0007060692
224	0xbd25e01b	-0.040496927
225	0xbda35153	-0.07974496
226	0x3d6e4138	0.058167666
227	0x3d470202	0.0485859
228	0xbd955308	-0.072912276
229	0xbe3d814e	-0.18506357
230	0xbe4b01ed	-0.19824953
231	0x3e093015	0.13397248
232	0xbe59f41b	-0.21284525
233	0xbcfdab0e	-0.030965354
234	0x3dd80e43	0.10549595
235	0x3e5551eb	0.2083203
236	0x3d7146a0	0.058905244
237	0xbe0a448f	-0.13502716
238	0x3e7fde0c	0.24987048
239	0xbe15fce4	-0.14647251
240	0x3db1e06e	0.08685385
241	0x3e6132b4	0.21991998
242	0xbe6137a6	-0.21993884
243	0xbe7f392d	-0.24924155
244	0xbe25f9dd	-0.16208597
245	0x3cf894d7	0.03034441
246	0xbe32de68	-0.17467654
247	0xbe571071	-0.21002366
248	0xbd091b5a	-0.03347335
249	0xbe1d2b56	-0.15348563
250	0x3e1c05f5	0.15236647
251	0xbc8a2d03	-0.016867166
252	0xbac50b18	-0.0015033213
253	0xbc2f6c63	-0.010706994
254	0xbe16db7a	-0.14732161
255	0x3db27f6f	0.08715712

cnn.0.bias f4 [32]
0	0x3d98d311	0.07462133
1	0x3e22b762	0.15890267
2	0xbce3917e	-0.027779337
3	0xbdd33cef	-0.103143565
4	0x3dcbb953	0.09947457
5	0x3d2d0ba7	0.04224744
6	0xbd12ab4a	-0.035807885
7	0x3dd90f13	0.10598578
8	0x3e18d3e2	0.14924577
9	0x3e80e624	0.25175583
10	0xbd8c8664	-0.068615705
11	0x3d1e188d	0.038597632
12	0x3db4187d	0.08793733
13	0x3b238076	0.0024948395
14	0xbd8cd2a0	-0.06876111
15	0x3e14f308	0.14545834
16	0xbe5e065a	-0.2168211
17	0xbe63a1e0	-0.22229719
18	0xbdc83b7b	-0.0977697
19	0x3d80f0e6	0.06295948
20	0xbe7dfa0f	-0.24802421
21	0x3e2d6327	0.16932355
22	0x3e703937	0.23459326
23	0xbe085201	-0.13312532
24	0xbdc09fa6	-0.094054505
25	0xbe3220d0	-0.1739533
26	0x3d66c826	0.05634322
27	0x3daea294	0.08527103
28	0x3da1748a	0.07883556
29	0xbc9122ae	-0.017716732
30	0xbe6bc274	-0.23023397
31	0x3dec0ac0	0.11525488

cnn.2.weight f4 [32, 32, 3]
0	0x3d695e4e	0.0569747
1	0x3d5c8e6c	0.05384676
2	0x3d4ffde2	0.05077923
3	0xbdca9356	-0.09891383
4	0x3dbc2f45	0.091887034
5	0xbdca4a13	-0.0987741
6	0x3d685698	0.056723207
7	0xbc97b6c4	-0.018519767
8	0xbc7a41d9	-0.015274488
9	0x3d89ba01	0.067249306
10	0xbda33636	-0.07969324
11	0xbd75fa88	-0.06005338
12	0xbcf1d5f1	-0.02952096
13	0xbdb52416	-0.088447735
14	0x3d1f78fc	0.03893374
15	0xbcd38b9f	-0.025823412
16	0x3caa092b	0.020756325
17	0xbd069f61	-0.03286684
18	0x3c94195c	0.018078499
19	0x3d89ecd7	0.06734627
20	0xbd994cc5	-0.07485346
21	0xbd7c0c56	-0.061535202
22	0xbbce9b64	-0.006305145
23	0x3d71092f	0.05884665
24	0xbd17a9d5	-0.0370272
25	0xbd70d841	-0.058799986
26	0xbb210e82	-0.0024575298
27	0x3d905d3a	0.070490316
28	0xbdbad172	-0.0912198
29	0xbd15edaf	-0.036603626
30	0xbd589cc3	-0.052883875
31	0x3d0697bb	0.032859545
32	0x3cda7a68	0.026669696
33	0x3d25750f	0.04039484
34	0xbc604ae2	-0.013689728
35	0x3c91f3d6	0.017816465
36	0xbd79ffab	-0.06103484
37	0x3d1ca401	0.038242344
38	0xbdadc493	-0.08484759
39	0xbdb1c2c8	-0.0867973
40	0xbdbba430	-0.09162176
41	0xbda758bd	-0.08171222
42	0xbd884022	-0.06652857
43	0xbcb7c1ba	-0.022431243
44	0x3d4af7e7	0.049552824
45	0x3d16948b	0.036762755
46	0xbb4e8a44	-0.0031515518
47	0x3d87d642	0.06632663
48	0x3cb63f5e	0.022247013
49	0xbdb83715	-0.08994881
50	0x3da7a0b3	0.08184948
51	0xbda78d60	-0.08181262
52	0xbd9ed796	-0.077559635
53	0xbd755594	-0.059896067
54	0xbd76b1c4	-0.060228124
55	0xbdd2284c	-0.10261592
56	0xbce6afc0	-0.028159976
57	0x3da9031f	0.082525484
58	0x3d6c77a3	0.057731282
59	0xbd4b2638	-0.049596995
60	0xbba2a04a	-0.0049629556
61	0x3d9ced3d	0.07662437
62	0xbc8155a9	-0.015787916
63	0x3dbcd29c	0.09219858
64	0xbd746f4b	-0.05967645
65	0xbdccfc71	-0.10009087
66	0xbc81a52c	-0.01582583
67	0x3d7465c8	0.05966738
68	0x3c4056ae	0.011739416
69	0xbd1e5822	-0.03865827
70	0x3b95028d	0.004547423
71	0xbd289136	-0.04115411
72	0x3d0bd8b9	0.03414223
73	0x3da2fdbe	0.07958554
74	0x3d686298	0.05673465
75	0xbbfa74b7	-0.007643308
76	0xbd6dff1d	-0.058104623
77	0x3d1dc907	0.038521793
78	0x3d9b14c2	0.075723186
79	0xbdac14d1	-0.08402408
80	0x3d6cc4f1	0.057805005
81	0x3d2e41ba	0.04254315
82	0xbda7c280	-0.08191395
83	0x3d2a743c	0.041614756
84	0xbd0b47bb	-0.034003954
85	0xbc844e7d	-0.016150707
86	0x3dbec6d2	0.09315266
87	0x3da4beb6	0.08044188
88	0x3d98717e	0.07443522
89	0xbd7fe202	-0.062471397
90	0xbd068ed7	-0.032851066
91	0x3d719adc	0.058985576
92	0x3db4866a	0.088147
93	0x3ce046eb	0.027377566
94	0x3db613bb	0.08890482
95	0x3c92dfe4	0.017929025
96	0x3bfcc625	0.0077140504
97	0x3bb2ab65	0.0054525607
98	0xbdc481ae	-0.09595047
99	0x3ce7b0a8	0.028282478
100	0xbdc53c62	-0.09630658
101	0x3d8b44d4	0.06800237
102	0x3dc17ba5	0.094474114
103	0x3dcca465	0.09992293
104	0x3d683bad	0.056697536
105	0x3dcc9e9f	0.09991192
106	0xbd42f90c	-0.04760079
107	0xbb4cd507	-0.0031254904
108	0x3cd80054	0.026367344
109	0xbd934b52	-0.071921006
110	0x3d168031	0.036743347
111	0xbcd32883	-0.025776153
112	0x3d198cce	0.037487797
113	0x3cb2c9b7	0.0218247
114	0x3dc83692	0.097760335
115	0xbcdaf31e	-0.026727255
116	0x3d19909c	0.037491426
117	0x3aba80d5	0.0014229069
118	0x3cb99d34	0.022657968
119	0x3d42d8da	0.047570087
120	0x3dafca89	0.085835524
121	0xbd908e0a	-0.07058342
122	0xbda3a864	-0.07991102
123	0x3cf374bd	0.029718751
124	0xbc4ae9d4	-0.0123848505
125	0x3d5088cf	0.05091172
126	0xbdb4f691	-0.08836091
127	0xbd9e7d37	-0.077387266
128	0xbd83a80c	-0.06428537
129	0x3d6e4ed0	0.05818063
130	0x3b300ae8	0.002686197
131	0x3d9cf22c	0.07663378
132	0xbdc82d36	-0.09774248
133	0x3db32ec4	0.08749154
134	0x3dbde184	0.09271529
135	0xbc3717f8	-0.011175148
136	0x3c8d8039	0.017273055
137	0x3d13d986	0.03609612
138	0x3d2c4175	0.042054612
139	0xbd308d31	-0.0431034
140	0xbd5f8bb2	-0.054576583
141	0x3da264ba	0.07929368
142	0x3d918cc3	0.07106926
143	0xbce36e1d	-0.027762467
144	0x3c9a7f7e	0.018859621
145	0xbd88b746	-0.06675582
146	0xbd6051b0	-0.054765403
147	0xbb0f7360	-0.0021888837
148	0x3d46b440	0.048511744
149	0x3c90957b	0.017649403
150	0xbd6a1b59	-0.057154987
151	0xbd118c17	-0.03553399
152	0xbcefab27	-0.029256416
153	0xbd69a08c	-0.057037875
154	0x3dc39e03	0.09551623
155	0xbcbc87df	-0.023014007
156	0x3d990f3b	0.07473608
157	0x3d11a7ec	0.035560533
158	0xbdcca320	-0.09992051
159	0x3c9617b5	0.018321851
160	0xbc86e500	-0.016466618
161	0xbdbdbe4a	-0.092648104
162	0xbd8582bb	-0.065190755
163	0x3b8b4d09	0.0042511267
164	0xbd270983	-0.040780555
165	0x3d58444d	0.05279951
166	0xbc56164d	-0.01306684
167	0x3d807750	0.06272757
168	0xbd1532b8	-0.036425322
169	0x3db8c4a5	0.09021882
170	0xbdbac5e7	-0.09119778
171	0x3d505ae0	0.050867915
172	0x3d8efccc	0.06981811
173	0x3cd0dc27	0.025495602
174	0x3d15e66b	0.036596697
175	0x3d176820	0.036964536
176	0xbdcb9e18	-0.09942263
177	0xbd51a20e	-0.051179938
178	0xbdc63c25	-0.096794404
179	0x3dcae8f0	0.099077106
180	0xbda62ccb	-0.08114012
181	0x3db8b403	0.090187095
182	0x3d6d6bdb	0.057964187
183	0x3c150c37	0.0090971505
184	0x3c8d40c9	0.017242806
185	0xbdd0140c	-0.10160074
186	0x3b068c3b	0.0020530361
187	0x3cce3850	0.025173336
188	0x3d9abdfa	0.075557664
189	0x3dc68af4	0.09694472
190	0xbd80e6ee	-0.06294046
191	0xbdaa6901	-0.08320809
192	0xbc3520e3	-0.011055204
193	0x3d5c72d4	0.053820446
194	0xbd79fd1f	-0.06103241
195	0x3d70eb06	0.058817886
196	0xbdc55e80	-0.09637165
197	0x3d8dc364	0.069220334
198	0xbdbe2267	-0.092839055
199	0x3d68baa5	0.056818623
200	0x3d8b90c8	0.06814724
201	0x3d99b693	0.075055264
202	0x3c273c54	0.010207254
203	0xbd27c5d1	-0.040960137
204	0xbb33ec2d	-0.0027454004
205	0x3d2b4608	0.041814834
206	0x3c11a94e	0.008890463
207	0x3c6ba27b	0.014382
208	0x3c4c26bc	0.012460407
209	0x3db9dca8	0.0907529
210	0x3d283e84	0.041075245
211	0x3d7499bd	0.05971693
212	0xbdb795ec	-0.08964142
213	0x3da000ca	0.078126505
214	0x3cbde4c5	0.023180375
215	0xbd39868c	-0.04529433
216	0x3d12fd27	0.035885956
217	0x3d50f98d	0.05101924
218	0x3cdcc5ce	0.02694979
219	0xbd89fc96	-0.0673763
220	0x3d6e64ea	0.058201708
221	0xbced8782	-0.02899528
222	0x3bedcae5	0.007256853
223	0x3d787f8d	0.060668517
224	0x3d12bb03	0.03582288
225	0x3da2e6a2	0.07954146
226	0x3cd1a8ba	0.02559315
227	0x3d837bd0	0.064201
228	0x3d5f29a2	0.054483064
229	0xbc46b7ba	-0.012128765
230	0x3dce97be	0.10087536
231	0x3da7a617	0.08185976
232	0xbcd328eb	-0.025776347
233	0x3d050de2	0.032483943
234	0xbdbcfd1f	-0.092279665
235	0xbb85a1f9	-0.0040781465
236	0xbb91dda2	-0.0044514695
237	0xbc39a189	-0.011330017
238	0xbccedb66	-0.025251102
239	0x3d7cc4cb	0.061711114
240	0x3c369855	0.011144717
241	0x3d82aa3c	0.06380126
242	0x3c625f85	0.013816719
243	0x3da4bf9f	0.08044361
244	0xbd72e91d	-0.059304345
245	0xbd565140	-0.05232358
246	0x3c19bfd7	0.009384117
247	0xbda795c1	-0.0818286
248	0xbdae66fe	-0.08515738
249	0xbdc991b0	-0.09842241
250	0x3d4187f4	0.047248796
251	0x3c6c5fff	0.014427184
252	0xbcb3e8d4	-0.021961607
253	0x3bfabea9	0.007652123
254	0x3dc2224e	0.09479199
255	0xbc99ca77	-0.0187733

cnn.2.bias f4 [32]
0	0x3d6b1df9	0.05740163
1	0x3c8d712d	0.01726588
2	0xbd48f001	-0.04905701
3	0xbdacd68c	-0.08439359
4	0xbdcc8462	-0.099861875
5	0x3b4d65e6	0.0031341254
6	0xbd5a7a71	-0.053339425
7	0xbd8a0600	-0.06739426
8	0xba7a86e4	-0.00095568434
9	0xbda503f5	-0.08057395
10	0xbd140b92	-0.036143847
11	0x3c4778a9	0.012174764
12	0xbca8b016	-0.020591777
13	0xbdcce3b0	-0.100043654
14	0x3d3e84af	0.046513256
15	0x3da1b357	0.078955345
16	0xbdab452f	-0.08362805
17	0x3d4d4e44	0.050123468
18	0xbdc3c749	-0.09559495
19	0x3d16dbaf	0.0368306
20	0xbd45f647	-0.04833057
21	0x3db7cffb	0.08975216
22	0x3d0c2b31	0.034220878
23	0xbdca2f25	-0.09872273
24	0xbb8348e2	-0.004006491
25	0xbd61299e	-0.05497133
26	0xbdb6923b	-0.0891461
27	0xbcba1095	-0.022712985
28	0xbd7253aa	-0.05916182
29	0xbd700c66	-0.058605574
30	0x3ccd6392	0.025071893
31	0x3ae7ad64	0.0017675576

attn.in_proj_weight f4 [96, 32]
0	0xbd8dd7f5	-0.06925956
1	0xbe49666e	-0.1966798
2	0x3dd44d93	0.103663586
3	0x3e39ae8f	0.18132995
4	0x3dc69dfa	0.096981004
5	0x3e062aa1	0.13102199
6	0x3e549d49	0.20763125
7	0xbe5a8495	-0.21339639
8	0x3e30524c	0.17218894
9	0x3bf59c6a	0.0074954526
10	0x3d76bb69	0.060237322
11	0x3c59ad53	0.013285953
12	0x3d3fc179	0.04681537
13	0xbe2cbe95	-0.16869576
14	0x3e1c2189	0.15247168
15	0x3e4bb491	0.198931
16	0xbe4062bb	-0.18787663
17	0x3b270d10	0.0025489964
18	0xbd4eef87	-0.0505214
19	0x3e49f567	0.1972252
20	0xbe436813	-0.1908267
21	0x3d4427d0	0.04788953
22	0x3e3457b1	0.17611577
23	0x3e41e567	0.18935166
24	0xbdb12d33	-0.08651199
25	0x3dd9ae8a	0.10628994
26	0xbd44f003	-0.048080456
27	0x3dfdc7a4	0.12391594
28	0xbe3d749b	-0.18501513
29	0x3e199dc8	0.15001595
30	0xbe1b8e92	-0.15191105
31	0x3d2d5ea5	0.04232659
32	0x3e25b3da	0.16181889
33	0xbe586de3	-0.21135668
34	0xbe1e2154	-0.15442401
35	0x3daad499	0.08341331
36	0xbcaf1dae	-0.021376457
37	0xbd590337	-0.05298158
38	0xbdb907b6	-0.09034674
39	0x3c0e4fae	0.008685989
40	0xbd6efaed	-0.05834477
41	0x3e383c38	0.17991722
42	0x3d6d325f	0.057909366
43	0x3e3ba86b	0.18325965
44	0xbd98bf60	-0.07458377
45	0xbe530a01	-0.20609285
46	0x3d5b68fe	0.053566925
47	0xbe2c1198	-0.16803586
48	0xbe0bc5c6	-0.13649663
49	0xbd6a6dd9	-0.057233665
50	0x3e2417af	0.1602466
51	0xbe4ff8e0	-0.20309782
52	0x3e1572a2	0.1459451
53	0xbe52438f	-0.20533584
54	0xbcd413cf	-0.025888352
55	0xbd42e006	-0.047576927
56	0xbe331a00	-0.17490387
57	0xbd5909cf	-0.05298787
58	0xbe1dd8b5	-0.15414698
59	0x3dffa076	0.12481777
60	0x3c33d790	0.010976687
61	0x3df4327c	0.11923692
62	0x3e4f6fd8	0.20257509
63	0xbd5e676a	-0.054297842
64	0x3e0fe31d	0.1405148
65	0xbe41a0e8	-0.18909037
66	0xbdfb8945	-0.122820415
67	0xbe164f21	-0.14678623
68	0xbe25d361	-0.16193916
69	0xbe565f78	-0.20934856
70	0xbe3cb6bc	-0.18429083
71	0x3db26b83	0.087119125
72	0x3d5c64d1	0.053807084
73	0x3d7cf3f1	0.06175608
74	0xbe1008aa	-0.14065805
75	0x3d98bb04	0.074575454
76	0x3e49c289	0.19703116
77	0x3dfef893	0.124497555
78	0x3e3c41b4	0.18384439
79	0xbdb0beb3	-0.08630123
80	0x3c938ea2	0.018012349
81	0xbe4aa0c5	-0.19787891
82	0x3db75db4	0.08953419
83	0xbd3beaa6	-0.045878075
84	0x3d2e3e99	0.042540167
85	0xbe00104c	-0.12506217
86	0x3e55258b	0.20815103
87	0x3e1b9fee	0.15197727
88	0x3c536827	0.01290325
89	0xbd81bd86	-0.06334977
90	0xbe160ed4	-0.14654094
91	0x3db96c99	0.090539165
92	0x3d20a5e5	0.03922071
93	0x3dfe77c7	0.124251895
94	0x3e4cacde	0.19987819
95	0x3da275e2	0.079326406
96	0xbd74710c	-0.059678122
97	0x3d9b7357	0.07590359
98	0x3dd2b793	0.1028892
99	0xbd909c74	-0.07061091
100	0xbe237650	-0.15963101
101	0x3d04e871	0.032448236
102	0xbdbb7e63	-0.09154966
103	0x3ddc46da	0.10755701
104	0xbdd392b6	-0.10330717
105	0xbe350d23	-0.17680793
106	0xbd377d54	-0.044797257
107	0xbd6bdbb4	-0.057582572
108	0xbe114f0e	-0.14190313
109	0xbdafa49c	-0.085763186
110	0x3cf5de0d	0.030013109
111	0x3e4879cb	0.1957771
112	0x3d3eadf5	0.046552617
113	0xbd4ff49d	-0.05077039
114	0xbe320474	-0.17384511
115	0x3e53953b	0.20662396
116	0x3d3f4d75	0.04670473
117	0x3dc33bdf	0.09532904
118	0x3d60fdf6	0.054929696
119	0xbce77c2c	-0.028257452
120	0xbd54edef	-0.051984724
121	0xbc36c5c2	-0.011155548
122	0x3d47f356	0.048816048
123	0x3d81f0d2	0.06344761
124	0xbdc331a4	-0.095309526
125	0x3dcd7ae0	0.10033202
126	0x3e0183f5	0.12647994
127	0x3ba2823f	0.004959374
128	0x3dfd268a	0.12360866
129	0x3dfc76aa	0.12327321
130	0x3e40cd35	0.1882828
131	0xbe373a33	-0.17893295
132	0xbcca27ea	-0.024677236
133	0xbcbeb0e7	-0.023277713
134	0xbe1b18ab	-0.15146129
135	0xbd74532d	-0.059649635
136	0xbda13cf3	-0.07872953
137	0x3e3a8788	0.18215764
138	0x3c68c0cc	0.014206123
139	0xbe166c31	-0.14689709
140	0x3deb0c05	0.11476902
141	0x3c1bed47	0.009517021
142	0x3e4b50c2	0.19855025
143	0x3e2d2559	0.16908778
144	0x3dfe172a	0.12406762
145	0x3d7dec42	0.06199289
146	0x3d0bf2e3	0.03416718
147	0x3e0894c7	0.13338004
148	0xbd349322	-0.04408563
149	0x3bef0008	0.007293705
150	0xbdcaf1d4	-0.09909406
151	0x3e5d62ae	0.21619675
152	0x3e3d933d	0.18513198
153	0x3d89dbf3	0.06731405
154	0xbde29a57	-0.11064594
155	0xbe11d531	-0.14241482
156	0x3e3d67c0	0.18496609
157	0x3d8fba78	0.07017988
158	0xbde160c2	-0.11004783
159	0x3e310832	0.17288283
160	0xbd8e333d	-0.06943367
161	0xbe0f2ad5	-0.13981183
162	0xbda83ee3	-0.0821512
163	0xbdd99a67	-0.10625153
164	0xbd4d08d6	-0.050057255
165	0xbd35d59b	-0.044393163
166	0xbe106074	-0.14099294
167	0xbdb6c2f1	-0.08923901
168	0xbe34c2ca	-0.17652431
169	0xbd598462	-0.053104766
170	0xbabf09bd	-0.0014575046
171	0xbe14ebd6	-0.1454309
172	0x3dda905b	0.10672065
173	0xbe07385d	-0.13205095
174	0xbe17e9d6	-0.14835295
175	0xbd9a0aa9	-0.075215645
176	0x3c3edf61	0.011649937
177	0xbdfe8389	-0.12427432
178	0xbd59f684	-0.05321361
179	0x3e0b2ca7	0.13591252
180	0x3e4d974d	0.20077248
181	0x3e5176a8	0.2045542
182	0xbd0100b2	-0.031494804
183	0x3d8dbc3e	0.0692067
184	0x3c9fb26c	0.019494258
185	0xbd9d661b	-0.07685491
186	0xbdfaeaa1	-0.12251783
187	0xbe546f3b	-0.20745556
188	0xbd8b8452	-0.068123475
189	0x3e29bb92	0.16575459
190	0x3d1e38fc	0.038628563
191	0x3de1d547	0.110270076
192	0x3e5b0e64	0.21392208
193	0x3dbaf024	0.091278344
194	0xbce51be2	-0.027967397
195	0x3e1147f9	0.14187612
196	0x3db98a5a	0.090595916
197	0xbe332469	-0.17494358
198	0xbcd6cdc4	-0.026221164
199	0x3e17d1d7	0.14826141
200	0x3e3b5314	0.1829341
201	0x3df9b4b0	0.121926665
202	0x3c936405	0.017992029
203	0x3bd3677b	0.006451545
204	0x3d788975	0.060677964
205	0xbd98c395	-0.07459179
206	0x3d93b8be	0.07212971
207	0xbe3150c6	-0.17315969
208	0xbe477526	-0.19478282
209	0xbd77ecd1	-0.06052858
210	0x3c16fdf7	0.009215823
211	0x3e130e56	0.14360937
212	0xbe499e4f	-0.19689296
213	0xbd5d4428	-0.054020077
214	0x3e1b0265	0.15137632
215	0xbe50cb9d	-0.20390172
216	0xbb387678	-0.0028146785
217	0x3dd2daf6	0.1029567
218	0x3de45d86	0.11150651
219	0x3e3033e8	0.172073
220	0x3d8dc9f4	0.06923285
221	0xbdd89e5d	-0.105770804
222	0xbd76bf99	-0.060241316
223	0xbaf3ec55	-0.0018609861
224	0xbde98d5c	-0.11403915
225	0x3e074a05	0.1321183
226	0x3e0543aa	0.13014093
227	0xbd3eddda	-0.046598293
228	0x3e3cdb23	0.18442969
229	0xbdca2193	-0.09869685
230	0x3dff1166	0.1245449
231	0x3db12c63	0.08651044
232	0xbda8bce2	-0.082391515
233	0x3e3a21b8	0.18176925
234	0xbe546b0c	-0.2074396
235	0x3dbd48a3	0.0924237
236	0x3e0006d9	0.12502612
237	0x3d918456	0.07105319
238	0xbe0ae7ca	-0.13564983
239	0xbd3d660b	-0.046239894
240	0x3e2ca1ab	0.16858546
241	0xbe46993e	-0.19394395
242	0xbdc5c060	-0.09655833
243	0x3dbcce42	0.09219028
244	0x3dbf8cdd	0.093530394
245	0xbd30da2e	-0.043176822
246	0xbcccc6aa	-0.024997074
247	0x3e23c130	0.15991664
248	0x3e597524	0.21236092
249	0x3e5260a4	0.20544678
250	0xbe461bd6	-0.19346556
251	0xbe0d5174	-0.13800603
252	0x3e1c9e18	0.15294683
253	0x3e158cf6	0.14604554
254	0x3e0e7c50	0.13914609
255	0x3e327b11	0.17429759

attn.in_proj_bias f4 [96]
0	0x3a82481b	0.0009939702
1	0x3a71f30a	0.0009229636
2	0x3a82875f	0.0009958557
3	0xba82ac6c	-0.0009969599
4	0x3a8116e0	0.0009848736
5	0xba82b5c6	-0.0009972386
6	0x3a81c743	0.0009901304
7	0x3a5ca5a3	0.0008417016
8	0xba81d5f1	-0.0009905678
9	0x3a81c9e9	0.0009902093
10	0x3a818cd3	0.0009883888
11	0xba7ff179	-0.000976346
12	0xba82c505	-0.0009976929
13	0xba82bead	-0.0009975039
14	0xba825a7d	-0.000994518
15	0xba740a64	-0.00093094097
16	0xba714b62	-0.00092046533
17	0x3a822917	0.0009930459
18	0x3a822e05	0.0009931928
19	0xba826c13	-0.0009950422
20	0x3a822b02	0.000993103
21	0xba812fcf	-0.0009856167
22	0x3a73b6db	0.0009296962
23	0xba81df17	-0.0009908405
24	0xba82be6a	-0.0009974961
25	0xba8260fd	-0.0009947118
26	0x3a82e389	0.0009986024
27	0x3a817300	0.0009876192
28	0xba826092	-0.0009946993
29	0xba82908a	-0.0009961289
30	0xba82cb28	-0.0009978758
31	0xba00c22b	-0.0004911746
32	0xb28c60e9	-1.6342215e-08
33	0x32864676	1.5631695e-08
34	0x32f42239	2.8420901e-08
35	0xb1c34fb8	-5.68431e-09
36	0xb2f42239	-2.8420901e-08
37	0x31434fdc	2.842163e-09
38	0x31434fdc	2.842163e-09
39	0xb3371900	-4.2630745e-08
40	0xb2c34ede	-2.2736852e-08
41	0x341eaaff	1.4777105e-07
42	0x34d8965e	4.0342542e-07
43	0x33127ab9	3.410489e-08
44	0x32371a80	1.0658027e-08
45	0xb40ad647	-1.2930205e-07
46	0xb2c34ede	-2.2736852e-08
47	0xb35bb720	-5.1156462e-08
48	0x31127bec	2.1316238e-09
49	0xb2dbb891	-2.5578887e-08
50	0x32927b5c	1.7052734e-08
51	0x3331c1ee	4.1387402e-08
52	0x32c34ede	2.2736852e-08
53	0xb3127ab9	-3.410489e-08
54	0x33434dbb	4.547267e-08
55	0x31e7ee99	6.7501102e-09
56	0xb367ebcb	-5.399833e-08
57	0x32aae521	1.98948e-08
58	0x32aae521	1.98948e-08
59	0xb2127bae	-8.52644e-09
60	0xb1c34fb8	-5.68431e-09
61	0xb30645ed	-3.1262903e-08
62	0x32c34ede	2.2736852e-08
63	0xb2927b5c	-1.7052734e-08
64	0x3a830cd9	0.0009998336
65	0xba831192	-0.0009999743
66	0x3a831255	0.000999997
67	0xba8311e2	-0.0009999836
68	0x3a830606	0.0009996302
69	0xba83122e	-0.0009999925
70	0x3a831230	0.0009999927
71	0xba83124d	-0.0009999961
72	0xba831256	-0.0009999971
73	0xba831252	-0.0009999967
74	0x3a831238	0.0009999936
75	0x3a83125a	0.0009999976
76	0xba83125b	-0.0009999977
77	0x3a83124d	0.0009999961
78	0xba831229	-0.0009999919
79	0xba831250	-0.0009999964
80	0xba831174	-0.0009999708
81	0x3a831241	0.0009999947
82	0x3a831240	0.0009999946
83	0xba831243	-0.0009999949
84	0x3a83123d	0.0009999942
85	0xba831235	-0.0009999933
86	0xba83124e	-0.0009999962
87	0xba831249	-0.0009999956
88	0x3a831242	0.0009999948
89	0xba831249	-0.0009999956
90	0x3a8311e9	0.0009999844
91	0xba83104e	-0.0009999366
92	0x3a831255	0.000999997
93	0xba83121c	-0.0009999904
94	0x3a831253	0.0009999968
95	0x3a8311f0	0.0009999853

attn.out_proj.weight f4 [32, 32]
0	0x3dda261a	0.106517985
1	0x3e15e217	0.14637028
2	0x3d833bd5	0.064078964
3	0xbe1851bb	-0.14874928
4	0x3d5cf19d	0.053941358
5	0x3d8e3111	0.069429524
6	0x3d8010c8	0.06253201
7	0x3cb9f6bf	0.022700666
8	0xbdcee3b0	-0.10102022
9	0x3db9fc3d	0.09081314
10	0x3de443f1	0.11145771
11	0xbd505732	-0.050864406
12	0xbd5206b3	-0.05127592
13	0xbdb4522a	-0.08804734
14	0xbda8c431	-0.082405455
15	0x3e195824	0.14975029
16	0x3e0d4f67	0.13799821
17	0x3d944f07	0.07241636
18	0xbdbf399b	-0.09337159
19	0xbe25c1c0	-0.16187191
20	0xbe3214c8	-0.1739074
21	0x3dc575d4	0.096416146
22	0xbc09721e	-0.008389024
23	0xbd8267b7	-0.06367438
24	0x3e2a2c39	0.16618432
25	0x3e22ca50	0.15897489
26	0xbd3ac0f5	-0.045594174
27	0x3ca1e126	0.01976068
28	0xbe16f9cd	-0.14743729
29	0xbdbe940d	-0.09305582
30	0x3d26394c	0.040581986
31	0x3e34cad7	0.17655502
32	0x3ddaf459	0.10691137
33	0x3d8911a9	0.066928215
34	0x3ddeaed8	0.108731925
35	0x3d773e93	0.06036241
36	0x3a812ea8	0.0009855824
37	0xbd78808d	-0.06066947
38	0xbe0db321	-0.13837864
39	0xbe127bfa	-0.14305106
40	0x3d39a8ba	0.045326926
41	0x3e2d1d3a	0.1690568
42	0xbdb25906	-0.08708386
43	0xbe27f754	-0.16402942
44	0x3dbb0fa8	0.091338456
45	0xbd91992f	-0.071092956
46	0x3dc3eb7f	0.09566402
47	0x3e19cc7c	0.15019411
48	0xbdaedac7	-0.08537822
49	0x3e016e62	0.12639764
50	0xbe0cdd0a	-0.13756195
51	0xbe1bdb54	-0.15220386
52	0xbd0f5594	-0.034993723
53	0x3e1bb852	0.15207031
54	0x3dca8cb9	0.09890122
55	0xbdc18bc1	-0.09450484
56	0xbdc351da	-0.09537096
57	0xbd79b40f	-0.060962733
58	0xbc4655ba	-0.0121054
59	0xbdc5607f	-0.09637546
60	0xbd578178	-0.052613705
61	0x3b99ce2a	0.004693766
62	0xbdd44463	-0.10364606
63	0xba7b7b39	-0.0009593252
64	0x3e123f8b	0.14282052
65	0x3d81776f	0.06321608
66	0xbd8c77ae	-0.068587646
67	0x3e0408de	0.12894008
68	0x3df72920	0.12068391
69	0x3d8758c0	0.066087246
70	0xbe14a7ba	-0.14517108
71	0xbd8f3abb	-0.06993624
72	0x3d9e4539	0.07728047
73	0x3d81d105	0.063386954
74	0xbe02dbca	-0.12779155
75	0x3d836045	0.06414846
76	0x3d19a5a4	0.037511483
77	0xbe268164	-0.16260296
78	0x3de0a396	0.109687015
79	0xbd8e569d	-0.06950114
80	0x3e1e8ade	0.15482661
81	0x3ddee1e3	0.10882928
82	0x3e288649	0.16457476
83	0x3c99d319	0.018777417
84	0xbdf4250f	-0.11921131
85	0xbdf31f92	-0.11871256
86	0xbe10eaf6	-0.1415213
87	0x3da5f116	0.08102624
88	0xbe04cad7	-0.12968002
89	0xbd02b0cc	-0.031906888
90	0xbdc9b68d	-0.09849272
91	0x3d6bc0eb	0.057557028
92	0xbdb1b7af	-0.08677613
93	0x3e1cdf62	0.15319589
94	0xbe040956	-0.12894186
95	0x3cfd47d4	0.03091804
96	0xbc270f67	-0.010196543
97	0x3dc75a07	0.09733968
98	0xbd0bff05	-0.034178752
99	0x3dd32ffc	0.10311887
100	0xbde0d0b5	-0.10977308
101	0x3d201b57	0.039088573
102	0xbdbf4dd2	-0.09341015
103	0xbda13d88	-0.07873064
104	0x3df716fc	0.12064931
105	0xbe19a521	-0.15004398
106	0x3e2a0bc3	0.16606049
107	0x3c7cd844	0.015432421
108	0x3e05e351	0.13074996
109	0xbe22dc78	-0.15904415
110	0x3de6a9f3	0.11262884
111	0xbdd89d09	-0.10576827
112	0x3e1b7f38	0.15185249
113	0xbd7bfb57	-0.061518993
114	0x3d8f5658	0.06998891
115	0xbdad26c3	-0.08454659
116	0x3c2907c6	0.010316795
117	0xbc67e610	-0.014153972
118	0xbc5a0742	-0.013307394
119	0xbd7d9ec4	-0.06191899
120	0x3c411ef5	0.011787166
121	0xbd286f5f	-0.041121837
122	0xbe19fe42	-0.15038398
123	0xbe1d303e	-0.15350434
124	0xbd946098	-0.07244986
125	0xbccd86cc	-0.02508869
126	0xbddeb4fe	-0.10874365
127	0x3d9af533	0.07566299
128	0x3d375646	0.04476001
129	0xbdf8a24e	-0.12140332
130	0x3d5653f7	0.05232617
131	0x3dcb9326	0.09940176
132	0x3e28acc5	0.16472156
133	0xbd911a75	-0.070851244
134	0x3e32fd00	0.17479324
135	0xbc883d3d	-0.016630763
136	0xbe16251c	-0.14662594
137	0xbe01a595	-0.12660821
138	0x3d0ac029	0.033874664
139	0xbd0ae43c	-0.033909068
140	0xbd93ed1d	-0.0722296
141	0x3c41e1b4	0.011833597
142	0x3d4ed311	0.050494257
143	0xbe0e904d	-0.13922234
144	0x3daf9706	0.08573727
145	0x3d6996da	0.05702863
146	0x3d02f66d	0.03197329
147	0xbcff3c0e	-0.031156566
148	0xbdeb6902	-0.11494638
149	0xbe23453c	-0.1594438
150	0x3deb92a5	0.115025796
151	0xbd894cd9	-0.06704111
152	0xbca7c94c	-0.020481728
153	0xbca818bf	-0.020519612
154	0xbe0799af	-0.1324222
155	0xbd8e45fa	-0.06946941
156	0x3d817794	0.06321636
157	0xbc276356	-0.010216555
158	0x3e154411	0.14576747
159	0x3da57c7f	0.08080386
160	0xbd092f4e	-0.03349238
161	0x3e25f4c5	0.16206653
162	0x3c2ad31c	0.010426309
163	0xbe12ea58	-0.14347208
164	0x3d94c282	0.07263662
165	0x3d940a9a	0.072285846
166	0x3e0a1da6	0.13487872
167	0x3c3ae333	0.011406708
168	0x3e0b5ac6	0.13608846
169	0x3d823935	0.063585676
170	0x3d6707be	0.056403868
171	0xbd837704	-0.06419185
172	0xbe140c7c	-0.14457887
173	0xbc77a575	-0.015115132
174	0x3d319505	0.043355007
175	0xbdf7ae08	-0.12093741
176	0x3e005c19	0.12535132
177	0x3dc7e7d4	0.097610146
178	0xbd15fb69	-0.036616717
179	0xbe167d61	-0.14696266
180	0xbdc32735	-0.095289625
181	0xbdfc53e9	-0.12320692
182	0xbd2dc4d4	-0.042424038
183	0xbd75066b	-0.059820574
184	0xbdf25983	-0.11833479
185	0x3dac1473	0.08402338
186	0x3e351cde	0.17686793
187	0x3d173278	0.036913365
188	0x3ddb8cb1	0.10720194
189	0xbe195b46	-0.14976224
190	0x3e0c7b5c	0.13718933
191	0xbcf5314d	-0.029930735
192	0xbe2ae08c	-0.1668722
193	0x3d028b20	0.03187096
194	0xbe159328	-0.14606917
195	0xbe1fce78	-0.15606105
196	0xbe26971b	-0.1626858
197	0xbdcc6d24	-0.099817544
198	0x3e0b0b73	0.13578586
199	0x3c095931	0.008383081
200	0xbc9fe37c	-0.019517653
201	0x3d1526b4	0.036413863
202	0xbde597cd	-0.11210594
203	0xbd786e6f	-0.060652193
204	0x3d7186e0	0.058966517
205	0x3b9f1ca6	0.00485571
206	0xbdfb4a52	-0.12270035
207	0x3b9b1afc	0.0047334414
208	0xbe0de889	-0.13858236
209	0xbda17844	-0.07884267
210	0x3df9e637	0.12202113
211	0x3e2a325e	0.16620776
212	0x3c7d6f0c	0.01546837
213	0xbe0eba2e	-0.1393821
214	0xbd8266c4	-0.06367257
215	0xbdfef91f	-0.1244986
216	0xbd981896	-0.074265644
217	0xbcb2abdd	-0.021810466
218	0x3dd6410d	0.10461626
219	0x3e1809e1	0.14847519
220	0xbcd49e54	-0.025954403
221	0xbe122aae	-0.14274094
222	0xbd896c70	-0.06710136
223	0x3dbbb618	0.09165591
224	0xbe2d58ac	-0.16928357
225	0x3e28d36e	0.16486904
226	0x3db5cd28	0.08877021
227	0xbddca91a	-0.10774441
228	0x3da04a8f	0.07826721
229	0xbdf321fd	-0.11871717
230	0xbcf2dc2a	-0.029645998
231	0x3db634c3	0.08896782
232	0x3dd56c59	0.10421056
233	0xbdda4664	-0.10657957
234	0x3d460dbe	0.04835295
235	0x3e2388df	0.15970181
236	0xbd4d5e8a	-0.050138988
237	0x3c727129	0.014797487
238	0x3e135ade	0.14390132
239	0xbd73e276	-0.05954214
240	0x3dfd7e39	0.12377591
241	0x3e020468	0.12696993
242	0x3e1a21d3	0.15051965
243	0xbe2da9bc	-0.1695928
244	0xbe273279	-0.16327848
245	0xbe1a0be3	-0.15043597
246	0x3dcbe664	0.09956053
247	0x3db80cfe	0.08986853
248	0xbde9053e	-0.11377953
249	0xbde6222e	-0.11236988
250	0x3e25f977	0.16208445
251	0x3db857e4	0.09001139
252	0x3cbd7e07	0.023131384
253	0xbd523614	-0.051321104
254	0x3cadf123	0.021233147
255	0x3df51f03	0.11968806

attn.out_proj.bias f4 [32]
0	0x3a831254	0.0009999969
1	0xba83125e	-0.0009999981
2	0xba831260	-0.0009999983
3	0x3a831263	0.0009999987
4	0x3a831264	0.0009999988
5	0x3a831240	0.0009999946
6	0x3a83121a	0.0009999902
7	0x3a831228	0.0009999918
8	0xba83124a	-0.0009999957
9	0x3a8310e5	0.0009999542
10	0xba831258	-0.0009999974
11	0xba83125f	-0.0009999982
12	0xba831263	-0.0009999987
13	0x3a8311ad	0.0009999775
14	0xba830ac4	-0.0009997715
15	0x3a83121f	0.0009999907
16	0x3a831257	0.0009999973
17	0x3a83123c	0.0009999941
18	0xba831264	-0.0009999988
19	0x3a831264	0.0009999988
20	0x3a831229	0.0009999919
21	0x3a83123f	0.0009999945
22	0x3a83125c	0.0009999978
23	0xba831261	-0.0009999984
24	0x3a831180	0.0009999722
25	0x3a831257	0.0009999973
26	0xba831174	-0.0009999708
27	0x3a831217	0.0009999898
28	0xba831248	-0.0009999955
29	0x3a831239	0.0009999938
30	0xba83124d	-0.0009999961
31	0x3a83124c	0.000999996

lstm.weight_ih_l0 f4 [256, 32]
0	0xbde4486d	-0.111466266
1	0xbdb5bcbb	-0.08873888
2	0x3dab81b2	0.08374347
3	0xbd3c3509	-0.045949016
4	0xbd819172	-0.063265696
5	0x3de46765	0.111525334
6	0xbd8e31d1	-0.069430955
7	0xbbc772ae	-0.006086669
8	0xbdb8d893	-0.09025683
9	0x3dcea424	0.10089901
10	0xbdfb62ac	-0.122746795
11	0x3db7a095	0.089661755
12	0x3dc4db67	0.0961216
13	0xbc73061b	-0.014832999
14	0xbd4c4b21	-0.049876336
15	0xbc9b97d8	-0.018993303
16	0xbb903fd1	-0.0044021388
17	0x3c19cd4a	0.009387324
18	0xbdf795bf	-0.12089109
19	0xbdd242b5	-0.102666296
20	0xbdf826a5	-0.12116746
21	0x3de8d064	0.11367872
22	0x3a4ef59b	0.00078948744
23	0xbd9a4cdc	-0.07534191
24	0xbd9c05bb	-0.076182805
25	0xbdeeb288	-0.11655146
26	0xbd1be261	-0.03805769
27	0x3dd45707	0.10368162
28	0x3cea1051	0.028572233
29	0x3dfa5349	0.12222917
30	0xbda48ec5	-0.080350436
31	0x3def1c25	0.1167529
32	0x3d5f1d52	0.05447132
33	0xbc828449	-0.01593222
34	0x3d44feee	0.048094682
35	0x3d014ba9	0.031566296
36	0x3decba1b	0.11558934
37	0xbcae4253	-0.02127186
38	0xbca193c8	-0.019723788
39	0xbc8db7b3	-0.017299509
40	0xbcec2ebf	-0.028830884
41	0xbd954112	-0.07287802
42	0x3d78a8f2	0.060707994
43	0x3df7b1ed	0.120944835
44	0x3cc62272	0.024186347
45	0xbd56031b	-0.052249055
46	0x3df734d6	0.120706245
47	0x3d2abd0a	0.041684188
48	0x3df4d779	0.11955161
49	0xbdc2b897	-0.09507864
50	0xbdc3f01e	-0.09567283
51	0xbd9c23c1	-0.07624007
52	0x3d900048	0.07031304
53	0x3de16977	0.11006444
54	0x3dfcd061	0.123444326
55	0xbdbf85f7	-0.09351724
56	0xbd850314	-0.06494728
57	0xbbdfcd8b	-0.0068299226
58	0xbc0d8d54	-0.008639652
59	0x3c89de64	0.016829677
60	0xbb79b3a8	-0.0038101468
61	0xbdbef2bc	-0.09323642
62	0x3c8a0593	0.016848361
63	0xbdd5c3ad	-0.10437713
64	0x3dadc190	0.08484185
65	0x3d5b1d5e	0.053494804
66	0x3c62f964	0.013853405
67	0x3deabd77	0.11461919
68	0x3d04d43b	0.03242896
69	0xbd81c863	-0.06337049
70	0xbd7c245e	-0.06155812
71	0xbd107bf2	-0.035274453
72	0xbd43a4f1	-0.047764722
73	0xbd9c806c	-0.07641682
74	0x3d9d27a0	0.076735735
75	0xbdaa0538	-0.08301777
76	0xbdc1dd5e	-0.094660506
77	0x3d2f6145	0.042817373
78	0x3c7df2fc	0.0154998265
79	0x3d16b721	0.03679574
80	0xbdf6e357	-0.120550804
81	0xbc8655ed	-0.016398394
82	0x3def7f62	0.11694218
83	0xbda1ed4f	-0.07906591
84	0x3ae01c63	0.0017098304
85	0x3c6ca872	0.014444457
86	0xbd706230	-0.05868739
87	0x3c7aef43	0.0153158335
88	0x3bfca32f	0.0077098827
89	0x3b932a36	0.004491116
90	0x3c1809cc	0.0092796795
91	0x3d66e41e	0.056369893
92	0xbd13e3eb	-0.03610603
93	0x3d3fad51	0.046796147
94	0xbc793c0c	-0.01521207
95	0x3d76b5c9	0.060231958
96	0xbd8fa286	-0.07013421
97	0x3d65cbca	0.05610255
98	0xbcea5f33	-0.028609848
99	0x3d28ab70	0.04117912
100	0x3de86b9c	0.1134865
101	0x3d0325ec	0.032018587
102	0xbd71e478	-0.059055775
103	0x3d08ab15	0.03336628
104	0x3de71dc0	0.11284971
105	0x3df8ecb1	0.1215452
106	0x3d17c093	0.037048887
107	0x3ca2ccf2	0.019873116
108	0xbd197c68	-0.03747216
109	0xbde9d7b0	-0.11418092
110	0xbdf61111	-0.12014974
111	0xbd5e9f0f	-0.05435091
112	0x3d99ab81	0.07503415
113	0x3dd0bf5b	0.10192748
114	0x3bc323f7	0.005955215
115	0x3deba389	0.11505801
116	0x3c622cfd	0.013804671
117	0x3db7afbd	0.08969066
118	0xbdb7af06	-0.0896893
119	0xbdac0b7f	-0.0840063
120	0xbddd919e	-0.1081879
121	0xbdf61fd4	-0.120177895
122	0xbc99fbed	-0.018796885
123	0x3dc38178	0.095461786
124	0xbd43c884	-0.04779865
125	0xbd5478f5	-0.051873166
126	0xbd41720a	-0.047227897
127	0xbd698bfa	-0.057018258
128	0x3d422a40	0.047403574
129	0xbd60fb3d	-0.0549271
130	0x3df7ab63	0.12093236
131	0xbdc49250	-0.095982194
132	0x3c06e5aa	0.008233467
133	0x3d57505e	0.05256688
134	0x3d0341d9	0.03204522
135	0x3dc781cb	0.09741553
136	0x3c9b2943	0.018940574
137	0x3d775631	0.060384933
138	0x3d6059e3	0.054773223
139	0xbda68921	-0.08131624
140	0x3d654cad	0.055981327
141	0xbdea9672	-0.114544764
142	0xbd5a4a86	-0.053293727
143	0xbdd3148d	-0.10306654
144	0x3cce304a	0.02516951
145	0xbddcf61a	-0.10789128
146	0xbdb74e5f	-0.08950495
147	0xbddd479f	-0.10804676
148	0xbd898633	-0.067150496
149	0x3dc09bc6	0.094047114
150	0x3d8f775d	0.070051886
151	0x3b17b7da	0.0023150356
152	0xbbe56ba6	-0.007001358
153	0x3d5d68ae	0.05405491
154	0xbc4f00a1	-0.012634427
155	0xbdf3235e	-0.1187198
156	0x3ddc9f66	0.1077259
157	0xbc8d5d56	-0.01725642
158	0xbdb375ee	-0.08762728
159	0x3aa1cc6f	0.0012344251
160	0xbda53de8	-0.08068448
161	0xbcd94074	-0.026519991
162	0x3ce70c3e	0.02820408
163	0x3cf6fd7d	0.03015017
164	0xbcafb760	-0.021449745
165	0x3d818320	0.06323838
166	0xbd0f5861	-0.034996394
167	0xbd837adc	-0.06419918
168	0xbdfcd0e4	-0.1234453
169	0xbd915862	-0.07096936
170	0x3c7cb4f1	0.015423999
171	0xba53acfd	-0.00080747885
172	0xbda82abc	-0.08211276
173	0x3d92711c	0.0715048
174	0x3dc09211	0.0940286
175	0xbd91aa6d	-0.07112584
176	0xbc8926b7	-0.016742093
177	0x3da1a3ce	0.078925714
178	0x3d4a554c	0.04939775
179	0xbcb539f2	-0.022122357
180	0xbd8dca97	-0.069234066
181	0xbda194b0	-0.07889688
182	0x3d3cdccc	0.046109006
183	0xbd4ec9b6	-0.050485335
184	0x3da54b0c	0.08070955
185	0x3d3743ab	0.044742268
186	0xbd69bd28	-0.05706516
187	0x3da2dcf3	0.07952299
188	0xbaafcda7	-0.001341273
189	0xbd86a86e	-0.06575094
190	0xbda5fea9	-0.08105213
191	0xbda6728e	-0.08127318
192	0xbdc8bb73	-0.09801378
193	0xbdf44399	-0.11926956
194	0xbc888136	-0.016663175
195	0x3ba89a90	0.0051453784
196	0x3cb70926	0.02234323
197	0x3dc52609	0.09626395
198	0xbb013d1c	-0.0019720262
199	0x3df438ee	0.11924921
200	0x3d19ae06	0.037519477
201	0x3dc649b6	0.09682028
202	0xbd9615a5	-0.07328347
203	0x3cc0587d	0.023479695
204	0xbc58b0cb	-0.0132257445
205	0xbd45ab53	-0.04825909
206	0x3dae375f	0.08506655
207	0x3df3446d	0.118782856
208	0xbde43f9e	-0.111449465
209	0xbcc42e58	-0.02394788
210	0x3bec3045	0.0072079026
211	0x3dddaa67	0.10823517
212	0x3dc21415	0.094764866
213	0xbb46ac1e	-0.0030314992
214	0x3dd8faf8	0.105947435
215	0xbd896afe	-0.0670986
216	0xbce62067	-0.028091623
217	0x3dcdac78	0.100426614
218	0x3ca19ad8	0.019727156
219	0xbd8ee4ce	-0.06977235
220	0x3cd52e1d	0.026022965
221	0xbd2d2f43	-0.0422814
222	0xbdfb68ce	-0.12275849
223	0x3d81a201	0.06329728
224	0xbd541be9	-0.05178443
225	0x3da80cfd	0.08205602
226	0xbda7a296	-0.08185308
227	0x3d84455b	0.06458541
228	0xbd6dd8ec	-0.0580682
229	0xbdeca17d	-0.11554239
230	0x3dbcb69e	0.09214519
231	0x3d8022f8	0.0625667
232	0xbba712bc	-0.005098669
233	0xbd5aefe0	-0.05345142
234	0xbd9efc04	-0.07762912
235	0x3c96b8b9	0.01839863
236	0xbd0e6b92	-0.034770556
237	0xbdcf8f21	-0.101347215
238	0x3df6443a	0.12024732
239	0x3d9133d2	0.07089962
240	0x3d38e128	0.0451366
241	0x3da4ee2c	0.0805324
242	0x3db08fee	0.086212024
243	0x3dcba777	0.09944051
244	0xbd816ce0	-0.063195944
245	0xbdebcb37	-0.115133695
246	0xbdd49098	-0.103791416
247	0x3c170a3d	0.00921875
248	0x3d88f29c	0.06686899
249	0x3d928361	0.07153965
250	0xbdbc132e	-0.09183346
251	0x3bff22e0	0.00778614
252	0xbdd231b2	-0.10263385
253	0x3cbc4765	0.022983262
254	0xbc39ba66	-0.011335945
255	0x3df137f3	0.117782496

lstm.weight_hh_l0 f4 [256, 64]
0	0x3defaa71	0.11702431
1	0x3d28fef4	0.041258767
2	0x3dca8337	0.098883085
3	0x3db81d51	0.08989967
4	0xbc1d4552	-0.009599047
5	0xbd0b38f5	-0.033989865
6	0xbdae940b	-0.08524331
7	0xbd078e70	-0.033094823
8	0xbc2ab636	-0.010419419
9	0xbca5ae97	-0.020224852
10	0x3db8eb2b	0.0902923
11	0x3db1ab8d	0.08675299
12	0x3da959cc	0.082690805
13	0x3dd9f4dc	0.10642406
14	0x3cd41934	0.025890924
15	0xbd709b58	-0.058741897
16	0x3d679d4d	0.056546498
17	0xbdd7957a	-0.10526557
18	0xbb8f6574	-0.004376108
19	0x3cba8824	0.022769995
20	0x3d1c849a	0.038212396
21	0x3d6d9d7b	0.058011513
22	0xbd825717	-0.06364267
23	0x3d7e22f7	0.062045064
24	0xbd8b716c	-0.06808743
25	0xbdec536b	-0.11539348
26	0xbd4155ef	-0.047201093
27	0xbde70717	-0.11280649
28	0x3ded662d	0.11591754
29	0xbdd43397	-0.103614025
30	0x3dd385b1	0.10328234
31	0x3d440117	0.0478526
32	0x3dd4d6a2	0.103925005
33	0x3dd9cd9c	0.1063492
34	0xbd96b0d6	-0.073579475
35	0xbd7f8d3e	-0.06239056
36	0x3dadb662	0.084820524
37	0xbcec1164	-0.028816886
38	0x3dba256f	0.09089171
39	0x3dbdba8e	0.09264098
40	0xbdd878b4	-0.10569897
41	0x3d9c931f	0.076452486
42	0xbdb7464f	-0.08948957
43	0x3ddf7ed5	0.10912863
44	0x3dadf338	0.08493656
45	0x3cf4d3ed	0.02988621
46	0x3dea8baf	0.11452424
47	0x3db77807	0.0895844
48	0x3d858165	0.06518821
49	0xbd9e6811	-0.07734693
50	0x3d498679	0.04920051
51	0xb8b171d8	-8.461223e-05
52	0xbc85277a	-0.016254175
53	0x3db250ac	0.08706793
54	0xbdd5e849	-0.104446955
55	0xbdeee779	-0.11665244
56	0x3d737385	0.05943634
57	0xbd28e51c	-0.04123412
58	0xbd9f4e3d	-0.07778595
59	0x3d800ba9	0.06252224
60	0xbb05cf71	-0.0020417834
61	0xbc91a47a	-0.017778624
62	0xbdcec75d	-0.10096619
63	0x3dda29ac	0.106524795
64	0xbd865dfe	-0.06560896
65	0x3df93241	0.12167788
66	0x3dcb1d22	0.09917666
67	0x3cb71a2d	0.022351349
68	0x3dc3a3e0	0.09552741
69	0x3db14484	0.086556464
70	0x3d081c4c	0.03323011
71	0x3de13133	0.10995712
72	0x3c66a73f	0.0140779605
73	0xbc7649a7	-0.0150322085
74	0xbc96babe	-0.018399592
75	0x3dc441dc	0.09582874
76	0xbdd32c78	-0.10311216
77	0xbdeb92fb	-0.11502644
78	0xbd28826b	-0.04114
79	0xbc2a9135	-0.010410597
80	0x3daf1e54	0.085507065
81	0x3c6b39b7	0.014357022
82	0xbde7dc23	-0.113212846
83	0x3da38ed1	0.079862244
84	0x3d370126	0.04467883
85	0x3ca2feac	0.019896828
86	0x3dba4092	0.09094347
87	0x3da949f7	0.08266061
88	0x3c8461e3	0.016159957
89	0xbd66440e	-0.056217246
90	0x3d3669cc	0.04453449
91	0x3d006011	0.031341616
92	0xbd78eea3	-0.060774457
93	0x3d9c21b5	0.076236166
94	0xbd939e04	-0.072078735
95	0x3c3a4dce	0.011371089
96	0xbd2c3ce4	-0.042050257
97	0xbdb6c14f	-0.089235894
98	0xbd9f6e90	-0.0778476
99	0x3d7aa3b0	0.06119126
100	0x3caa9983	0.020825153
101	0xbdbbdded	-0.09173188
102	0xbcb4d6df	-0.022075115
103	0x3d925673	0.07145395
104	0x3b3488cf	0.0027547365
105	0xbdcd6a58	-0.10030049
106	0x3d6c8df1	0.057752553
107	0xbde2bcca	-0.11071165
108	0x3d85f19e	0.065402254
109	0x3dca5441	0.098793514
110	0xbd4fcff3	-0.050735425
111	0x3b0e59a1	0.0021720903
112	0x3c9d524c	0.019204281
113	0x3ddff840	0.10936022
114	0xbd485d24	-0.04891695
115	0xbc234b64	-0.009966705
116	0x3cb3306e	0.021873679
117	0x3cd8b2b0	0.026452392
118	0xbd6021b8	-0.054719657
119	0x3cd6185e	0.026134666
120	0x3dbca47b	0.0921106
121	0xbd1c7f4f	-0.03820735
122	0xbcaef07a	-0.021354903
123	0x3ca1ba3f	0.01974213
124	0x3dcbcb8f	0.09950935
125	0xbdb104e0	-0.08643508
126	0xbde2145c	-0.110390395
127	0xbdc01d9e	-0.09380649
128	0xbde9c77d	-0.114150025
129	0xbde60871	-0.11232079
130	0x3d1f6f22	0.038924344
131	0x3d058af2	0.03260321
132	0xbde8de8b	-0.11370572
133	0xbd0a09bb	-0.033700686
134	0x3d735f40	0.05941701
135	0xbdba6477	-0.091011934
136	0x3d8b30cf	0.06796419
137	0xbd8f021b	-0.069828235
138	0xbc74039f	-0.014893441
139	0x3d66990f	0.05629831
140	0xbdf219e6	-0.11821346
141	0x3c7bb942	0.015363993
142	0x3db3b8b8	0.08775467
143	0xbd48a979	-0.048989747
144	0xbdd7e990	-0.105425954
145	0xbd18c9f8	-0.037301987
146	0xbdff817d	-0.1247587
147	0x3dca434f	0.09876119
148	0xbdaa217a	-0.083071664
149	0xbc1817c4	-0.00928301
150	0x3cd5787f	0.026058434
151	0x3d97cd70	0.07412231
152	0x3d0a166b	0.033712786
153	0x3cb2d10f	0.021828203
154	0xbda4b5c4	-0.080424815
155	0xbdadb104	-0.08481029
156	0xbd003f06	-0.031310104
157	0xbd60c23f	-0.054872748
158	0x3d52049f	0.05127394
159	0x3d5296d4	0.051413372
160	0x3d9862eb	0.07440742
161	0x3d4bb043	0.049728643
162	0x3dfe2811	0.12409986
163	0x3dd4f3b7	0.103980474
164	0xbd90b9ee	-0.07066713
165	0x3ca6a956	0.020344418
166	0xbdeee474	-0.11664668
167	0x3cf7adfa	0.030234326
168	0xbc0a7a20	-0.008451968
169	0xbde9340d	-0.11386881
170	0xbdd10e0d	-0.10207758
171	0xbdd7134e	-0.10501729
172	0x3d7fae47	0.062422063
173	0xbc3439a3	-0.01100007
174	0xbcb85aac	-0.022504173
175	0xbdfbf811	-0.12303174
176	0x3de5bfc6	0.112182185
177	0x3c9502a7	0.018189741
178	0xbcdfe9d5	-0.02733318
179	0x3dca6154	0.09881845
180	0xbd1c4338	-0.038150042
181	0xbde4bdaa	-0.11168988
182	0x3d851936	0.06498949
183	0xbd79376b	-0.060843866
184	0xbd082f5a	-0.033248283
185	0x3d24f025	0.040268082
186	0xbb9de445	-0.0048184716
187	0x3d511467	0.051044848
188	0xbbe115ee	-0.0068690693
189	0xbcdaba9c	-0.02670031
190	0xbd512f61	-0.051070575
191	0xbd200c35	-0.03907414
192	0x3d4deabb	0.050272685
193	0xbc7dfaa9	-0.015501657
194	0x3d27bfe4	0.040954486
195	0xbdad3ece	-0.08459245
196	0xbdfc7ca3	-0.1232846
197	0xbda9ea91	-0.08296693
198	0xb88445b0	-6.307231e-05
199	0xbdf89cab	-0.12139257
200	0x3bd3bf9a	0.0064620497
201	0xbd5152ce	-0.05110436
202	0xbdd60762	-0.10450627
203	0x3d841df2	0.06451024
204	0xbd807d7e	-0.06273936
205	0x3d9b7eaa	0.07592519
206	0xbdcd6aa8	-0.10030109
207	0xbde89a93	-0.11357608
208	0xbdb8f252	-0.09030594
209	0xbd991f60	-0.074766874
210	0xbd51c673	-0.051214647
211	0xbce14f6c	-0.027503692
212	0xbdf2c7b9	-0.118545
213	0xbd128b27	-0.035777237
214	0xbd1b4e53	-0.037916493
215	0xbcff3160	-0.031151474
216	0x3db22475	0.0869836
217	0xbd3d3512	-0.04619319
218	0xbb735057	-0.0037126744
219	0x3de92408	0.113838255
220	0xbdc7fba2	-0.09764792
221	0x3ddff6ba	0.10935731
222	0x3d03a571	0.0321402
223	0x3d203ace	0.03911858
224	0x3d91086f	0.07081687
225	0x3c737613	0.014859694
226	0x3cfbb485	0.030725727
227	0x3dd2882d	0.1027988
228	0xbdafe300	-0.08588219
229	0xbdde1c10	-0.10845196
230	0xbd16bd6e	-0.036801748
231	0x3d9a7576	0.07541935
232	0xbb0abb6c	-0.002116884
233	0xbdd1a7a0	-0.1023705
234	0x3dc30d0a	0.095239714
235	0xbd96530f	-0.07340061
236	0xbdefebb3	-0.11714878
237	0x3d819529	0.06327278
238	0xbc7e0b90	-0.015505686
239	0xbbfdaec4	-0.007741781
240	0xbbce763b	-0.0063007153
241	0x3dd71774	0.1050252
242	0x3d743bc4	0.05962731
243	0x3d817ef7	0.06323045
244	0x3dde4f39	0.10854954
245	0x3cc5889a	0.024112988
246	0x3d8e895e	0.069597945
247	0x3de9e67a	0.11420913
248	0xbda6e477	-0.08149045
249	0x3ce66633	0.028124904
250	0xbdfd8355	-0.12378565
251	0x3d839660	0.06425166
252	0xbd097c94	-0.033566073
253	0xba0b1fc6	-0.0005307164
254	0xbd9c008e	-0.07617293
255	0x3ce75c40	0.02824223
