src/UI/fnn_model.pt (torch, 2993 bytes, 3 tensors)

network.0.weight f4 [16, 3]
0.14823784 -0.15043469 -0.50964564 -0.599454 0.26749325 0.46145058 0.4716351 -0.22130254
0.36391303 -0.32037112 -0.1878194 -0.23298672 -0.37845823 0.06332839 0.5025476 0.4322295
0.3186658 -0.0617084 0.21387489 -0.41903847 0.22530212 -0.44350162 0.51544964 0.32363617
-0.55274546 0.34943175 -0.45391163 -0.29759568 -0.328562 -0.42883635 -0.38372606 -0.14953648
-0.33486173 0.5146368 0.27748254 0.3963731 -0.39787307 -0.5128765 0.42759386 -0.020563211
0.54707575 -0.06629037 0.44071087 0.6093588 -0.39459297 -0.09716892 -0.17159781 0.036676638
00000000: a9cb 173e 8d0b 1abe 2378 02bf d175 19bf
00000010: e0f4 883e 4043 ec3e 287a f13e 229d 62be
00000020: cf52 ba3e af07 a4be bb53 40be 1294 6ebe
00000030: 47c5 c1be 51b2 813d f6a6 003f 2f4d dd3e
00000040: 2a28 a33e f2c1 7cbd 0502 5b3e 368c d6be
00000050: 99b5 663e a512 e3be 82f4 033f a4b3 a53e
00000060: ba80 0dbf b8e8 b23e 1b67 e8be 765e 98be
00000070: 4739 a8be 7090 dbbe be77 c4be 1720 19be
00000080: ff72 abbe 3dbf 033f 3112 8e3e 6af1 ca3e
00000090: 05b6 cbbe e04b 03bf 95ed da3e 2e74 a8bc
000000a0: 280d 0c3f 3fc3 87bd dba4 e13e f0fe 1b3f
000000b0: 1708 cabe 8000 c7bd 56b7 2fbe 3e3a 163d

network.0.bias f4 [16]
0.48638698 -0.4178076 -0.0146761425 -0.13350086 -0.17079002 0.26506552 0.33467007 -0.15143757
-0.2229532 0.068832815 -0.50316167 -0.43868256 0.39901134 0.31643116 0.50626105 0.024411507
00000000: b707 f93e e1ea d5be 3474 70bc 73b4 08be
00000010: 94e3 2ebe abb6 873e e059 ab3e 7312 1bbe
00000020: d84d 64be 38f8 8c3d 34cf 00bf 009b e0be
00000030: 374b cc3e 4403 a23e 539a 013f a4fa c73c

network.2.weight f4 [1, 16]
-0.27672976 -0.07733491 0.14101295 0.09623752 -0.057132445 0.08080755 0.007738353 -0.1452467
-0.2702075 0.1569682 0.024178227 -0.15100169 0.17279682 0.19962779 0.1815604 0.08410717
00000000: 86af 8dbe c461 9ebd b365 103e 2d18 c53d
00000010: b603 6abd 6e7e a53d 0392 fd3b 8dbb 14be
00000020: a358 8abe 46bc 203e 6b11 c63c 30a0 1abe
00000030: a6f1 303e 3a6b 4c3e f8ea 393e 6140 ac3d
