src/UI/checkpoints/autoencoder/best_encoder.pth (torch, 11791 bytes, 4 tensors)

0.weight f4 [128, 1]
0	0x3f60358b	0.875817
1	0x3f71fc9c	0.94526076
2	0x3e3fef30	0.18743587
3	0xbeb939c4	-0.36176884
4	0xbe706258	-0.23475015
5	0xbf5a732c	-0.8533199
6	0xbf33cc14	-0.70233274
7	0x3f263dbc	0.6493795
8	0xbe13c998	-0.1443237
9	0xbe95d091	-0.29260686
10	0xbf4638e5	-0.77430564
11	0x3f0ee73e	0.558216
12	0xbf2a3c3f	-0.6649818
13	0x3e0cb168	0.1373955
14	0xbf18fb4b	-0.5975844
15	0xbe10d2c8	-0.14142907
16	0x3eae3910	0.3402791
17	0x3ee25520	0.4420557
18	0x3ef62177	0.48072407
19	0x3da8f860	0.08250499
20	0xbf5177c8	-0.81823397
21	0xbf3b1196	-0.7307371
22	0x3e75c318	0.24000204
23	0x3f43cbfa	0.7648312
24	0xbe7b7489	-0.24556173
25	0xbdf74220	-0.12073159
26	0xbe9612a0	-0.29311085
27	0xbd570297	-0.052492704
28	0xbf6cb160	-0.9245815
29	0xbee24750	-0.44195032
30	0xbdd9eab0	-0.10640466
31	0x3f2fed16	0.6872114
32	0xbf22beb2	-0.6357223
33	0x3f0dd246	0.55398977
34	0xbed28764	-0.4111892
35	0xbf08fdda	-0.53512347
36	0x3f5a1a58	0.8519645
37	0x3dac9700	0.084272385
38	0x3eccd227	0.40004084
39	0xbee9a16e	-0.45630974
40	0xbd8bcf65	-0.06826667
41	0xbf31610c	-0.69288707
42	0x3e051a76	0.12998375
43	0xbf30cf26	-0.69066083
44	0xbf3e148b	-0.74250096
45	0xbf5db1c8	-0.865994
46	0x3e058306	0.13038263
47	0xbe86d9e6	-0.26338118
48	0x3f0f65bc	0.5601461
49	0xbdb87e4c	-0.09008464
50	0x3dba1583	0.09086134
51	0x3f6f4136	0.9345888
52	0xbea42a18	-0.32063365
53	0x3c9bac40	0.019003034
54	0xbf0dec74	-0.55438924
55	0x3f45aa78	0.7721324
56	0xbf1ee277	-0.6206431
57	0xbe3b8068	-0.18310702
58	0x3f40d603	0.75326556
59	0xbe558f7b	-0.20855515
60	0x3f65790a	0.89637816
61	0xbf2d34ce	-0.676587
62	0x3f26fa71	0.65225893
63	0x3f4d7164	0.80251145
64	0xbecb4438	-0.39700484
65	0x3ee261e7	0.4421532
66	0x3ef311a9	0.4747441
67	0xbf47b366	-0.78008115
68	0x3cdec180	0.027191877
69	0x3e7be278	0.2459811
70	0x3f34288f	0.7037439
71	0x3f183961	0.59462553
72	0x3e809a90	0.25117922
73	0x3f5c25ca	0.8599516
74	0x3f076c40	0.5289955
75	0x3ec57a32	0.3856979
76	0x3f5afd77	0.85543007
77	0x3f0dd2f2	0.554
78	0xbf1a5c15	-0.60296756
79	0x3f33dd7d	0.7025984
80	0x3ef3c828	0.47613645
81	0xbf5e005e	-0.8671931
82	0x3f00ab2b	0.5026118
83	0x3e998753	0.29986057
84	0x3ed46b20	0.4148798
85	0xbeb05b74	-0.34444773
86	0xbeb450a4	-0.35217774
87	0xbf696714	-0.9117291
88	0xbf231a4a	-0.6371199
89	0xbf38d241	-0.7219582
90	0xbe1835dd	-0.14864297
91	0xbe8263da	-0.25466806
92	0x3f088782	0.5333177
93	0x3efb83c9	0.49123982
94	0xbdd72e60	-0.10506892
95	0xbf710b3e	-0.9415778
96	0xbf821082	-1.0161288
97	0x3eb1067f	0.3457527
98	0x3f5185c6	0.8184475
99	0x3f499bd6	0.7875341
100	0x3f03c848	0.5147748
101	0xbf111b18	-0.56681967
102	0xbf46ea86	-0.77701604
103	0xbf1ba9b1	-0.60805804
104	0xbf0434cf	-0.5164308
105	0xbee3e7c4	-0.4451276
106	0xbe40a238	-0.18811882
107	0x3f4f70e4	0.8103163
108	0xbf3864ef	-0.7202901
109	0x3f3e70f6	0.74391115
110	0xbf30144c	-0.6878097
111	0xbf3668b4	-0.71253514
112	0xbf0cd729	-0.5501581
113	0xbaf74448	-0.0018864954
114	0xbf1dded8	-0.6166816
115	0x3ef3d9a7	0.47626993
116	0x3f5e7062	0.8689023
117	0x3c3ce000	0.011528015
118	0xbe0d0394	-0.13770896
119	0xbea7ead0	-0.32796335
120	0x3e69c1a0	0.22827768
121	0xbf6e3c86	-0.930611
122	0xbdc57360	-0.09641147
123	0xbf084428	-0.53229
124	0x3f49339e	0.78594387
125	0x3ecd20d0	0.40064096
126	0xbf0de72c	-0.55430865
127	0xbea779a4	-0.32709992

0.bias f4 [128]
0	0x3f00ba64	0.5028441
1	0x3f176413	0.59137076
2	0xbf2f88be	-0.68568027
3	0xbea16c94	-0.3152815
4	0xbf5764fe	-0.84138477
5	0xbe630508	-0.22169888
6	0x3d9d729a	0.07687874
7	0xbf689a0c	-0.90860057
8	0xbf0a7d4a	-0.54097426
9	0x3e65b5f4	0.22432691
10	0x3f1f3003	0.62182635
11	0xbf3b063c	-0.7305639
12	0x3b99e320	0.004696265
13	0xbf29eeb0	-0.66379833
14	0x3f7aec2a	0.9801661
15	0xbe021108	-0.1270181
16	0xbe6ada58	-0.22934854
17	0xbf6c64d6	-0.92341363
18	0x3ebaec69	0.36508492
19	0xbf71a202	-0.9438783
20	0xbf70318a	-0.9382559
21	0x3f15f5d5	0.58578235
22	0xbf50d702	-0.81578076
23	0xbe94b940	-0.29047585
24	0x3f0b98e4	0.5453017
25	0xbde117c0	-0.10990858
26	0xbf2ddaba	-0.67911875
27	0x3ec5590d	0.38544503
28	0x3f599429	0.849917
29	0x3ef96e98	0.4871719
30	0xbf7801c4	-0.96877694
31	0xbea19e64	-0.31566155
32	0xbf26b3d4	-0.65118146
33	0xbf78e802	-0.97229016
34	0xbef2007c	-0.47265995
35	0x3f75bd53	0.9599201
36	0xbea0ab10	-0.3138051
37	0xbcc04740	-0.023471475
38	0x3e95d8f5	0.29267088
39	0x3f5a4114	0.8525555
40	0x3e94d76c	0.29070604
41	0xbf74a3fe	-0.9556273
42	0x3f454d9a	0.77071536
43	0xbf194042	-0.59863675
44	0x3f736697	0.95078415
45	0xbf5a4362	-0.8525907
46	0x3f5a76fa	0.85337794
47	0x3e7ee8d2	0.24893501
48	0x3f4b520d	0.79422075
49	0x3f52f60c	0.8240669
50	0x3f2c7428	0.6736474
51	0xbeca61e0	-0.39527798
52	0x3ea35829	0.31903198
53	0xbd056c20	-0.03257382
54	0x3f2377d3	0.6385471
55	0x3f82364c	1.017282
56	0x3f59d480	0.85089874
57	0xbd26efe0	-0.040756106
58	0x3eaf932b	0.34291968
59	0x3f3e4d0e	0.74336326
60	0x3f1e99a3	0.6195318
61	0xbf57f07a	-0.84351313
62	0x3ecfd098	0.40588832
63	0xbec935b4	-0.39298785
64	0xbf603a50	-0.8758898
65	0x3f664f67	0.8996491
66	0x3e2048b8	0.1565274
67	0xbe9d92e4	-0.3077613
68	0xbf20667e	-0.6265639
69	0xbf3a248c	-0.72712016
70	0x3f703630	0.93832684
71	0x3eaa7e75	0.33299604
72	0xbf3cbeb0	-0.73728466
73	0xbf3a15f4	-0.7268975
74	0xbf309f88	-0.68993425
75	0x3d620a7d	0.055185784
76	0x3eae8e68	0.34093022
77	0x3f3320f3	0.6997215
78	0x3f1a55da	0.6028725
79	0x3f01979c	0.5062196
80	0xbed462cc	-0.41481626
81	0xbf7622c4	-0.961468
82	0x3f68a5c7	0.90877956
83	0x3ecee1b3	0.4040657
84	0xbf1e3510	-0.61799717
85	0x3f44a139	0.76808506
86	0xbf77cd2c	-0.9679744
87	0xbf36d8ec	-0.71424747
88	0xbf169f12	-0.5883647
89	0x3f40060c	0.75009227
90	0x3f6102fd	0.87895185
91	0x3f6be0b1	0.92139727
92	0xbf4bb4e2	-0.7957288
93	0x3f46fab5	0.777263
94	0xbea639c0	-0.32465935
95	0xbf0c218a	-0.54738677
96	0x3dc0df55	0.09417597
97	0x3dca5dbd	0.098811604
98	0xbe978624	-0.2959453
99	0xbe319ef0	-0.17345786
100	0xbe19b808	-0.15011609
101	0xbdf832d0	-0.12119067
102	0xbf39f89e	-0.72644985
103	0x3f6b8499	0.919992
104	0x3e8f320a	0.27967864
105	0x3e96babe	0.29439348
106	0x3dd5f5ba	0.10447259
107	0xbe2120a8	-0.15735114
108	0x3d695906	0.056969665
109	0x3ecd1ce0	0.40061092
110	0x3ee3e415	0.4450995
111	0xbefc7848	-0.49310517
112	0x3f559780	0.83434296
113	0x3efaa161	0.48951247
114	0xbf4095e6	-0.75228727
115	0x3f4c2a37	0.79751915
116	0xbea74f0c	-0.32677495
117	0xbf2d7a78	-0.67765
118	0x3f5d8f87	0.8654713
119	0xbed49a64	-0.4152404
120	0xbd6dafc0	-0.058028936
121	0xbeddbb9c	-0.43307197
122	0xbe5a5710	-0.21322274
123	0xbf484492	-0.7822963
124	0xbf40118a	-0.7502676
125	0xbed2195c	-0.41034973
126	0xbef8dfdc	-0.4860829
127	0xbe3a5238	-0.18195426

2.weight f4 [16, 128]
0	0xbc74d943	-0.014944377
1	0x3d26cfb1	0.040725414
2	0x3ce9b35b	0.028527906
3	0x3d80e322	0.06293322
4	0x3d741aa3	0.059595715
5	0xbc8522e6	-0.016251992
6	0x3bc7c739	0.0060967472
7	0x3d4b0867	0.04956856
8	0x3c113e8c	0.00886501
9	0xbdac675e	-0.08418153
10	0x3d7ed607	0.06221583
11	0xbb1f5b1c	-0.002431578
12	0x3cb82bff	0.022481916
13	0xbcb83477	-0.022485955
14	0xbd1edab3	-0.038782787
15	0xbd843fd9	-0.064574905
16	0x3d03860d	0.032110263
17	0xbc55afe7	-0.013042427
18	0x3d91f496	0.07126729
19	0x3d1309d6	0.035898052
20	0x3d8f507f	0.06997775
21	0xbd97a526	-0.074045464
22	0x3d568b6a	0.05237905
23	0x3cd1fe80	0.02563405
24	0xbd5a77c6	-0.05333688
25	0xbc428ed5	-0.011874874
26	0xb966cb03	-0.00022010137
27	0x3ca5d01a	0.020240832
28	0x3ce7643b	0.028246036
29	0x3d98af13	0.07455268
30	0xbdad18e5	-0.08452014
31	0xbd6114d1	-0.054951493
32	0xbd5d3c5c	-0.05401264
33	0x3d405627	0.04695716
34	0xbd5f91f3	-0.054582547
35	0xbd655f57	-0.055999126
36	0x3b70f5e0	0.0036767647
37	0xbd24ca1d	-0.040231813
38	0xbcd51fba	-0.026016105
39	0xbd891cd8	-0.06694955
40	0xbd3d9864	-0.04628791
41	0xbda69e9c	-0.08135721
42	0xbd631a46	-0.05544498
43	0x3daf17f8	0.085494936
44	0x3d11d4c9	0.03560332
45	0xbd8282f6	-0.06372635
46	0xbd81c0ab	-0.063355766
47	0xbc439813	-0.011938113
48	0x3d36d260	0.044634223
49	0x3d1299de	0.03579127
50	0xbd8b0b7d	-0.067893006
51	0xbc473dff	-0.012160777
52	0xbcd9a5f9	-0.0265684
53	0x3d8199cb	0.06328162
54	0x3cd06b49	0.025441783
55	0x3d1326ad	0.035925556
56	0x3c356c92	0.011073248
57	0xbdafe663	-0.08588865
58	0xbdccd4ba	-0.10001512
59	0xbd811f02	-0.063047424
60	0x3d306c3c	0.04307197
61	0xbd3304d9	-0.043705795
62	0x3d6c7877	0.05773207
63	0xbcb0aebf	-0.0215677
64	0xbd9b8fb8	-0.075957716
65	0xbcce1791	-0.025157722
66	0xbc305cd5	-0.01076432
67	0x3d87af13	0.0662519
68	0xbc82d0aa	-0.01596864
69	0xbc61aa3a	-0.013773495
70	0x3d8d441c	0.068977565
71	0xbd9e6228	-0.077335656
72	0x3db1bf63	0.08679082
73	0x3da215a9	0.079142876
74	0xbce4e437	-0.027940853
75	0xbd397404	-0.045276657
76	0x3c76375c	0.015027847
77	0xbd963c07	-0.07335668
78	0x3d118457	0.0355266
79	0xbc2e0723	-0.010621819
80	0x3d385840	0.045006037
81	0x3d8a1e1f	0.067440264
82	0xbd67cebc	-0.05659364
83	0xbd41782a	-0.047233738
84	0x3d280921	0.04102433
85	0xbd818a88	-0.06325251
86	0x3b20bbf5	0.0024526094
87	0x3d27d5fc	0.040975556
88	0x3da267ee	0.07929979
89	0x3d93da35	0.07219354
90	0x3cb06596	0.021532815
91	0xbc246c32	-0.010035561
92	0x3d79c94d	0.06098299
93	0xbd13780b	-0.036003154
94	0xbd5556d7	-0.05208477
95	0x3d7872a1	0.060656194
96	0xbd82ee64	-0.06393126
97	0x3d48b0af	0.048996624
98	0x3d8b00a4	0.067872316
99	0x3bbda8b1	0.005787932
100	0x3d4b1e50	0.049589455
101	0xbd7d206f	-0.06179851
102	0xbdb2a350	-0.08722556
103	0x3d9ad789	0.07560641
104	0xbd3e3278	-0.04643485
105	0xbb0ba9a4	-0.002131083
106	0x3c9f2707	0.01942779
107	0xbcf68498	-0.030092523
108	0xbd3c7db3	-0.046018314
109	0xbd4ac0c7	-0.049500253
110	0xbd0bd19f	-0.034135457
111	0xbb7c0eda	-0.0038461
112	0xbd3603dc	-0.044437274
113	0xbcb864c3	-0.022508984
114	0x3cfcf164	0.030876823
115	0x3c7a15cd	0.015263987
116	0x3d8a3a27	0.06749373
117	0x3d0e0536	0.03467294
118	0xbd2d9920	-0.04238236
119	0xbdb402ec	-0.0878962
120	0xbdae89c7	-0.08522373
121	0xbda1f40c	-0.07907876
122	0xbcf504f7	-0.029909594
123	0x3d04beb9	0.03240845
124	0x3d8ff63f	0.070293896
125	0x3d281b34	0.041041568
126	0xbc48732e	-0.012234492
127	0xbce6996d	-0.028149331
128	0x3cf28449	0.029604094
129	0x3db00b3d	0.085958935
130	0x3d98685b	0.07441779
131	0xbd98c042	-0.07458545
132	0xb998c613	-0.00029139276
133	0x3c7c578d	0.015401733
134	0x3d02a4b4	0.031895354
135	0x3d7546b5	0.059881885
136	0x3d25da42	0.04049135
137	0xbc5fe36c	-0.013665061
138	0xbd829631	-0.06376303
139	0xbd497105	-0.04918005
140	0x3d25c533	0.040471267
141	0xbd43ec44	-0.047832742
142	0x3d3d1200	0.046159744
143	0xbc4e49ea	-0.012590865
144	0xbceef511	-0.029169591
145	0xbd370dde	-0.04469096
146	0x3cb9b9dc	0.022671632
147	0x3da0a742	0.07844402
148	0x3c6f407c	0.014602777
149	0x3d710ce9	0.058850203
150	0xbc1c323a	-0.009533459
151	0x3c7d85cb	0.015473793
152	0xbd973bc1	-0.07384444
153	0x3c88260b	0.016619703
154	0x3d12e344	0.03586127
155	0xbc34078a	-0.010988126
156	0x3d4405a8	0.047856957
157	0x3be75365	0.007059502
158	0xbcb4b796	-0.022060197
159	0xbb6d0940	-0.0036168844
160	0x3db29780	0.087203026
161	0xbc9cc488	-0.019136682
162	0xbce4430a	-0.027863998
163	0xbd12d5bb	-0.03584836
164	0xbcaaf5d2	-0.02086917
165	0xbd2305dd	-0.039800514
166	0x3d1d22e2	0.038363345
167	0xbd8aeaed	-0.0678309
168	0x3d487320	0.048937917
169	0xbce955d7	-0.028483314
170	0xbd8a3d6b	-0.06749996
171	0x3d460f0c	0.048354194
172	0xbd4188e2	-0.047249682
173	0xbd35f703	-0.04442502
174	0xbdae887e	-0.085221276
175	0xbcac43a4	-0.021028347
176	0xbce3e531	-0.027819248
177	0xbd9e1120	-0.0771811
178	0x3bd64010	0.0065383986
179	0x3d7f74d9	0.062367294
180	0x3d85cc13	0.06533065
181	0x3da782ba	0.08179231
182	0xbd97442f	-0.07386052
183	0xbcb8b73c	-0.02254831
184	0xbd0eec01	-0.03489304
185	0xbd8a7c2f	-0.067619674
186	0xbc7e251d	-0.015511778
187	0xbd61b2b0	-0.05510205
188	0x3c93c06c	0.01803609
189	0x3d880cc8	0.06643063
190	0x3db0e9cd	0.08638344
191	0xbd4718a5	-0.048607487
192	0x3b3cfff5	0.0028839086
193	0x3d545d57	0.05184683
194	0x3ce945cc	0.028475665
195	0xbda306b5	-0.07960264
196	0x3d0693fd	0.032855976
197	0x3d942434	0.07233468
198	0x3d612657	0.054968204
199	0xbda6498d	-0.081194974
200	0xbce333f9	-0.027734743
201	0xbd9926df	-0.07478117
202	0x3b9f7053	0.004865685
203	0xbdac64d9	-0.08417673
204	0xbd0bd402	-0.034137733
205	0xbcc73983	-0.024319416
206	0x3da2788e	0.0793315
207	0xbda725d2	-0.081615105
208	0x3d6e0a70	0.058115423
209	0xbd87a2dc	-0.0662286
210	0x3d5b64c3	0.05356289
211	0xbd32bb1f	-0.043635484
212	0xba768dc4	-0.000940528
213	0x3d1c8678	0.038214177
214	0x3ca4723e	0.020074006
215	0xbcb3b4be	-0.02193677
216	0xbc8346d7	-0.01602499
217	0xbc10fa00	-0.008848667
218	0xbc989176	-0.018624049
219	0x3cdd7701	0.027034285
220	0x3d85ae54	0.06527391
221	0x3d373f6b	0.044738214
222	0xbd81fff0	-0.06347644
223	0xbbeafff0	-0.0071716234
224	0xbc94b8ed	-0.018154586
225	0xbd1d4755	-0.038398106
226	0xbd57b17b	-0.052659493
227	0xbd9e5901	-0.0773182
228	0x3d85c308	0.0653134
229	0xbda48b31	-0.08034361
230	0x3cda5b17	0.026654763
231	0x3b968b00	0.004594207
232	0x3d9c5209	0.076328345
233	0x3c4f92c4	0.012669269
234	0xbd2e41b0	-0.042543113
235	0x3d919402	0.071083084
236	0xbd82d565	-0.06388358
237	0xbd362516	-0.04446896
238	0xbd7a52e0	-0.061114192
239	0xbd35c288	-0.044374973
240	0xbc30f723	-0.0108011095
241	0xbc9ba391	-0.018998893
242	0x3d138e7c	0.036024556
243	0x3d9fcb64	0.078024656
244	0xbcd66add	-0.026174003
245	0xbd962545	-0.07331327
246	0xbd8632df	-0.06552672
247	0xbc830103	-0.015991693
248	0x3cbbd3f2	0.022928212
249	0x3d9350fb	0.0719318
250	0x3d4d6330	0.05014342
251	0x3d05ec45	0.032696027
252	0x3d864499	0.06556053
253	0x3cfb5a19	0.03068261
254	0x3d46fa8f	0.048578795
255	0xbd0b288f	-0.033974227

2.bias f4 [16]
0	0x3cb40ca9	0.021978693
1	0x3cb94c86	0.022619497
2	0x3da3c04d	0.07995663
3	0x3d94b8a2	0.072617784
4	0xbdabc478	-0.08387083
5	0x3cece6a9	0.028918581
6	0xba9b1d34	-0.0011834265
7	0x3d79449f	0.060856458
8	0x3b37ce11	0.002804641
9	0x3d8b6a8f	0.06807434
10	0xbc964bc7	-0.01834668
11	0xbd113e89	-0.03546003
12	0xbc01159e	-0.007878689
13	0xbd5a482a	-0.053291477
14	0x3da7d8c9	0.08195645
15	0xbcbbe9e8	-0.022938684
