models/snif_student.pth (torch, 292249 bytes, 12 tensors)

gcn1.linear.weight f4 [64, 16]
00000000: ecf0 2fbe 00d3 58bb 704d 9b3d 0048 1a3d
00000010: e24e 2bbe 76f1 223e d0f8 103d 5033 31be
00000020: 9234 7e3e 30f4 a5bc a48c 593e b085 9cbc
00000030: 9040 e13c 307a e0bc feff 553e b0d2 643e
00000040: 4ce9 143e d044 6b3e c898 6fbe 18d0 6b3d
00000050: fce2 95bd a0fc 27bc 6094 a6bc 5860 423e
00000060: 0841 213d 20eb b6bc 0e28 553e 1286 13be
00000070: 30bf 343d 38f5 a5bd a055 ef3d 1c0a c23d
00000080: 885b 3dbe 003e c9bd 984f 543d 9058 123d
00000090: 043f 933d d805 543d 7078 62be 1a30 65be
000000a0: 485e 42bd f068 f3bd 2417 a4bd 8438 173e
000000b0: f0e0 6abd 306b 1c3e 104d 893c 8047 c1bb
000000c0: 80fe 483c ec6a 2d3e 3c00 133e 38d1 03bd
000000d0: 7e3d 42be 82c5 45be a042 553e e07d 523d
000000e0: a25e 263e 7898 b9bd a073 1e3c eac8 6a3e
000000f0: 88bb 69be da7a 523e 68e1 cebd aa49 0d3e
00000100: 60c5 46bc e0f0 903d 50aa 32bd 166e 2ebe
00000110: 6c69 dcbd 283f 0abd 6e7c 633e baab 58be
00000120: d8ed 9cbd ee09 093e 608a 8f3d 0836 22be
00000130: 00f3 e83d 48f7 643e eae4 69be b00b a7bd
00000140: dc43 7f3e d4aa 173e c0fa 08bc 00fd 213e
00000150: 3866 5dbe 2842 d7bd e40d 93bd fe2e 17be
00000160: 36dc 09be ec3f ce3d a80b 66be b8d1 d3bd
00000170: 16c3 38be 80b1 b23d 68ed 583e f89c 26be
00000180: d4fc febd 4c88 6dbe d4c2 623e d8df 863d
00000190: d242 3ebe 62ca 2bbe 1642 16be 0002 46bd
000001a0: 3c1e ddbd 1ca8 d43d e0f5 20bc ba12 003e
000001b0: 74e5 aa3d 403d d13d 0211 4c3e d267 433e
000001c0: b8d5 1a3e 0c43 bc3d cc35 3b3e d2d7 3bbe
000001d0: 3a71 17be 4829 69bd 9aad 48be 5a1d 54be
000001e0: 543c e63d ccd0 dd3d 38b2 493d 5cb4 37be
000001f0: c87b 4f3d 7812 313e 30b4 5b3e 481f 533e
00000200: 806b 92bc 687e 5bbd 181b 923d c013 df3d
00000210: 0483 34be 888d 243e 3025 17bd 940e 303e
00000220: 00a7 b23a 044a 23be b488 c8bd a681 0b3e
00000230: 28cb cd3d ee5a 193e 440c 033e bcf4 29be
00000240: f0f1 e4bc 7074 d0bc 0020 623a d898 f53d
00000250: 7aa2 1b3e d835 7bbe 88f3 75bd d075 1abe
00000260: 7a98 2c3e 86c5 4abe d07d c8bd 1660 10be
00000270: 50c8 f73c 204e db3d 5401 6d3e 222c 663e
00000280: 8037 273b 6eb4 42be 3ca4 333e a031 8c3d
00000290: 70cb 233e f01e 053d c6ac 7c3e 2050 ee3c
000002a0: 6ecb 5bbe 7a3a 00be 96ed 603e b8ad b73d
000002b0: 9af6 003e 6089 503e f45e ce3d d460 2c3e
000002c0: f063 5e3d 2200 3b3e 94b4 97bd 7af9 76be
000002d0: d45d f7bd 4002 5e3e a82a 0c3e 38f9 3f3e
000002e0: 90e0 d23d 6846 55bd d63d 7cbe 2006 983d
000002f0: 4052 26be b80d 4fbd 007f 4fbc c0d2 ecbb
00000300: 7cc1 a4bd b6f4 78be 4482 14be 26ee 0f3e
00000310: 705e 55be f46e db3d 1604 013e 80ef 183e
00000320: 4050 a9bc 1896 0c3e a013 febc b08e ecbc
00000330: 884e 00bd b652 5f3e 1ce9 f13d 0a8d 563e
00000340: 5edd 4ebe 5065 e8bd c03b 9abd 6eb2 76be
00000350: 50d7 10be a0a0 523e 90e6 963d d0ab c9bd
00000360: d0ee 8dbd 9ccc ecbd 468a 6cbe f84a e83d
00000370: 062c 17be 888e 2e3d 0072 18bc 8a9d 52be
00000380: f614 733e 7494 a5bd ae8d 713e c458 acbd
00000390: ba33 5ebe 785b 853d 4c9d c43d 7c2f 75be
000003a0: 10bc 863c 80f3 f73c 08e6 ac3d 3294 0cbe
000003b0: 6488 eb3d 683a 5dbd d41d 693e 8000 3bbc
000003c0: f0ee b43c 3056 6a3e 40fc c53c d0a8 0cbe
000003d0: ccde 413e 80d4 b53b f8e0 643e 802c 583b
000003e0: 18c9 2dbe d0e3 f93d 5867 823d fcf9 e7bd
000003f0: 1419 10be 0495 263e 1ee4 06be e0df 503d
-0.17181748 -0.003308475 0.075831294 0.03766632 -0.1672931 0.15912423 0.035393536 -0.1730473
0.24824741 -0.02025804 0.21245056 -0.019106716 0.027496606 -0.027402014 0.20898435 0.22345996
0.1454212 0.22975469 -0.23398125 0.0575715 -0.073186845 -0.010253102 -0.020334423 0.18982065
0.03936866 -0.022328913 0.20816061 -0.14406613 0.044127643 -0.081034124 0.116862535 0.094745845
-0.18491948 -0.09826279 0.05183372 0.03572899 0.07189754 0.051763386 -0.22116256 -0.2238163
-0.047453195 -0.118852496 -0.08012226 0.14767653 -0.057343423 0.15275264 0.01676038 -0.005898416
0.012267709 0.16935319 0.14355558 -0.03218195 -0.1896877 -0.19313625 0.20826197 0.051389575
0.16247037 -0.09062284 0.009671122 0.22928205 -0.22825444 0.20554677 -0.101015866 0.13797632
-0.012132019 0.07077193 -0.043619454 -0.17034182 -0.10762295 -0.033751637 0.22215435 -0.21159258
-0.076625526 0.13382694 0.07008815 -0.15840924 0.113744736 0.22359955 -0.2284123 -0.08156526
0.2492823 0.1481126 -0.008360565 0.15819168 -0.21621025 -0.10510665 -0.07180384 -0.1476402
-0.1346291 0.10070786 -0.22465384 -0.10342735 -0.1804317 0.08725262 0.21184313 -0.16270816
-0.12450567 -0.23196524 0.22144634 0.065856636 -0.18580177 -0.16776422 -0.14673647 -0.04834175
-0.107967824 0.10383627 -0.009824246 0.12507144 0.08344546 0.10216761 0.19928363 0.19082573
0.1512059 0.09192476 0.1828224 -0.18344048 -0.14789286 -0.056924134 -0.19597474 -0.20714322
0.112419754 0.108308405 0.04924223 -0.17939895 0.050655156 0.17292202 0.21455455 0.20617402
-0.017873526 -0.053587347 0.07134074 0.10892439 -0.17628103 0.16069615 -0.0369007 0.17193061
0.0013630092 -0.15946203 -0.09791699 0.13623676 0.100485146 0.14976093 0.12797648 -0.16597265
-0.027947396 -0.025446147 0.0008625984 0.11992043 0.15198699 -0.24532259 -0.060046703 -0.15084004
0.1685504 -0.19801912 -0.09789622 -0.14099154 0.030246884 0.107082605 0.23145038 0.22477773
0.0025515258 -0.19014141 0.17543119 0.06845403 0.15995574 0.032500207 0.24675283 0.029090941
-0.21464321 -0.12522307 0.21965632 0.08968681 0.12594071 0.20364904 0.100767046 0.16833812
0.054294527 0.1826177 -0.074074894 -0.24118605 -0.12078443 0.21680546 0.13688147 0.18747413
0.10296738 -0.052069098 -0.24632964 0.07423043 -0.16242313 -0.050550193 -0.0126645565 -0.007227272
-0.08044717 -0.243121 -0.14502817 0.1405569 -0.20836806 0.10714522 0.12599215 0.14935112
-0.020668149 0.13729131 -0.031015217 -0.028876632 -0.031324893 0.21808895 0.1181204 0.2095224
-0.20201632 -0.11347449 -0.07530928 -0.24091503 -0.14144635 0.20569086 0.07368195 -0.09847224
-0.069303155 -0.11562464 -0.23099622 0.11342424 -0.14762887 0.042616397 -0.0093045235 -0.20567909
0.23738465 -0.08084956 0.23589203 -0.08415368 -0.2169942 0.06511587 0.096003145 -0.23943895
0.016447097 0.030267477 0.084423125 -0.13728407 0.11500624 -0.05401078 0.22765285 -0.011413693
0.02208659 0.2288444 0.024168134 -0.13736272 0.18932647 0.0055490136 0.22351444 0.0032985508
-0.16971242 0.12201655 0.063673675 -0.113269776 -0.14072067 0.16267782 -0.13172957 0.050994754

gcn2.linear.weight f4 [64, 64]
00000000: acc3 44bd 80bf a6bb c2fc c23d acbe 37bd
00000010: d0cf e83c 00ab afba 0065 643b d2d6 98bd
00000020: ac06 b1bd e2ed 883d a6fc f33d 28e4 b13c
00000030: b0e7 d7bd 0e9a a53d 0825 13bd 00b7 a9ba
00000040: b099 563c 7280 f0bd 28d8 a1bd 7869 123d
00000050: acbc 52bd 00b3 9aba 00f1 be3d 725c bebd
00000060: eef0 f8bd 988c e0bd 7097 ed3c 1067 85bc
00000070: c893 eebd b09c c73d 3cdf ea3d b0ef 04bd
00000080: 0ae0 a8bd a801 c9bd d812 0bbd 007b 48bd
00000090: ae93 bb3d b4a2 debd 6aa0 ba3d 4831 a93d
000000a0: f04f 0bbc 4028 613c e2be a43d 76ac bd3d
000000b0: 108c e43c 381c ab3d f0f3 a43c 1c6e b7bd
000000c0: 6ca8 29bd 9c80 993d f05b 4c3c aa5a cdbd
000000d0: 3008 6bbd 6036 8b3c 767e 993d 82ce e93d
000000e0: 4059 29bd 0c9a 1f3d eaa8 8bbd 98c0 a23c
000000f0: 189c 983d cc0d 08bd 480f c9bd 601f 063d
00000100: 1ca2 783d 0491 52bd 983f e3bc 001b b33a
00000110: 7ad0 c1bd 62f9 85bd c073 abbb a001 1a3c
00000120: 501d 043d 24d9 7bbd b890 e7bd ba91 aa3d
00000130: 40f7 d7bc d4ac d93d e003 033c 542f 863d
00000140: c0f6 ac3c bc56 3cbd e45f 5a3d 2691 f5bd
00000150: a891 dbbd 00a3 07bb 8ab5 a4bd e022 233d
00000160: 0c00 dfbd 2471 223d 1061 613d bc08 5fbd
00000170: 8c6b d1bd 6005 423c 888d 9a3d 862f edbd
00000180: e8a7 d33d 683f 63bd 3044 7cbc b849 fd3d
00000190: 54e6 de3d a889 d0bc 0609 ea3d d08b b13d
000001a0: 70ae a1bc 7cb3 d23d 30cb 223d aab2 963d
000001b0: b09e 2f3d 80dd 58bd 04d7 cf3d 10fb 1e3d
000001c0: d025 ca3d 7e8f bdbd 40bc 99bb 8051 e6bb
000001d0: 2c21 5b3d a8ad 593d 0869 85bd 509b 9cbc
000001e0: 96ea cd3d cc4c 89bd 2e87 e33d 223e bd3d
000001f0: 14ed 26bd b01f 7cbd 2a65 eb3d 1c9a 5cbd
00000200: 50e4 a5bd 5074 34bc 8020 b7bb 202a e8bd
00000210: d891 cabc 904d b53d 065c 94bd 4865 efbc
00000220: 62b3 f53d c0e0 04bd 18af 21bd cc8e 51bd
00000230: 66c9 d83d 5c17 5bbd 66ee e13d 4e31 c73d
00000240: 44f1 0ebd 48fa f0bd caed debd 8ea9 d3bd
00000250: be6e ed3d 3862 c93c a841 c6bd a4a9 57bd
00000260: 90b5 2f3c 3875 edbd 2e88 d43d 24f3 3dbd
00000270: 5806 993c 52f3 853d 8253 ae3d 1ed6 f4bd
00000280: 7897 fd3c 1c2a eabd 9410 c03d a87d adbc
00000290: da31 cf3d 0806 9c3d 24d3 bc3d d817 e53d
000002a0: 92f8 c1bd 9639 d5bd 20c8 813c 5260 9b3d
000002b0: 7cbb 99bd 8057 713b e013 c2bd 440b 753d
000002c0: 660f b83d 064b d73d 6639 86bd 80d1 ba3c
000002d0: 5698 bebd a8f7 6a3d 48b9 b5bd 0872 35bd
000002e0: b05c eabc a66d 8a3d 401e d2bd f0c9 823d
000002f0: dce3 6b3d 98ce 843c 00ce db3d febd bbbd
00000300: c822 9f3c 8042 98bb 425f a33d ec1e 7cbd
00000310: 28fb f13d 6456 cdbd 74bb 47bd 90f0 863d
00000320: 6a6a 9ebd 2405 7cbd f053 84bc 1ed7 bbbd
00000330: 4839 1bbd e8f0 d6bc 2634 ccbd 3cd5 4bbd
00000340: a249 e43d 000d 8fba 7c8f 7fbd 3076 1ebd
00000350: 4ccc da3d 44f8 653d 8a1a cd3d 5e56 8abd
00000360: 2e9e ff3d 4cc3 1f3d 10ff 47bc 60a1 e63c
00000370: 209f ba3d d295 efbd e807 4ebd 84c1 d2bd
00000380: 64a1 bcbd 04bb cbbd 1c1e e6bd 34b0 e1bd
00000390: f8d8 353d a83a 03bd c274 ba3d c84b 943d
000003a0: d0a3 9fbd 6069 86bc 102d 5dbc a82e 23bd
000003b0: 8467 823d c41d c13d 0cb0 c33d cc81 febd
000003c0: 26a0 bd3d 3c48 7c3d e417 acbd b484 24bd
000003d0: c096 543b c05b f33d ca5c 8ebd 568e 893d
000003e0: 3025 14bc 9cb5 8ebd 9203 f03d 807f de3c
000003f0: 60c4 90bd 9492 adbd 428b ddbd ba7b c73d
-0.04803817 -0.0050887465 0.09520866 -0.044859573 0.028419405 -0.0013402402 0.003485024 -0.07462849
-0.08643851 0.066859975 0.11913423 0.021715239 -0.10542238 0.08086024 -0.035923988 -0.0012948215
0.013098165 -0.11743249 -0.07902557 0.035745114 -0.051449463 -0.0011802614 0.09323311 -0.09294976
-0.12155329 -0.10964316 0.029002875 -0.016284496 -0.11649281 0.09746683 0.1146836 -0.032455146
-0.08245857 -0.09814769 -0.033953518 -0.048945427 0.09159027 -0.10870877 0.09112628 0.08261353
-0.008502945 0.0137425065 0.080442205 0.0926141 0.027898818 0.08354992 0.02013585 -0.089565486
-0.041420385 0.074952334 0.0124730915 -0.100270584 -0.057380855 0.016993701 0.07494824 0.11416341
-0.04134488 0.03896527 -0.06819327 0.019867226 0.074516475 -0.033216283 -0.09817368 0.032744765
0.060701475 -0.05140783 -0.027740285 0.0013664663 -0.09463592 -0.065417066 -0.0052323043 0.0093998015
0.032254517 -0.06148638 -0.113069 0.083285764 -0.026363015 0.106286675 0.007996529 0.06551996
0.021113753 -0.045981154 0.053314105 -0.119905755 -0.10721141 -0.002069652 -0.08042438 0.03982818
-0.10888681 0.03965868 0.055024207 -0.05445169 -0.10225591 0.011842102 0.07546526 -0.1158133
0.1033476 -0.05548039 -0.015397117 0.12367576 0.10883775 -0.025456265 0.11427502 0.08669245
-0.019736499 0.1028814 0.039744556 0.07358296 0.042875946 -0.052945614 0.10148433 0.03881365
0.098704934 -0.092558846 -0.0046916306 -0.0070287585 0.053498432 0.053144127 -0.06514174 -0.019117028
0.10054509 -0.06704101 0.11109768 0.092403665 -0.04075344 -0.061553657 0.11493905 -0.053857908
-0.08100188 -0.011014059 -0.005588591 -0.1133616 -0.024727747 0.088526845 -0.072441146 -0.0292231
0.11997105 -0.0324409 -0.039473623 -0.051161572 0.10585289 -0.053489074 0.11031799 0.09726201
-0.034898058 -0.11766487 -0.108851984 -0.10335074 0.11593388 0.024582967 -0.09680492 -0.052652016
0.01072444 -0.11594623 0.10377537 -0.046374455 0.018679783 0.0654055 0.085120216 -0.11954902
0.030956015 -0.11433813 0.09378162 -0.021178082 0.1011693 0.07618338 0.092199594 0.111861885
-0.09471239 -0.10411374 0.015842497 0.07586731 -0.07506463 0.0036825836 -0.09476447 0.059825197
0.08987312 0.105123565 -0.06553917 0.022804976 -0.093063995 0.05736509 -0.0887323 -0.0442982
-0.02860865 0.06759195 -0.10259676 0.06386173 0.05759035 0.016211793 0.10732651 -0.091670975
0.019425765 -0.0046465993 0.07977153 -0.061552927 0.118154824 -0.10026243 -0.048762754 0.065888524
-0.077351406 -0.06152834 -0.016153306 -0.0917189 -0.037896425 -0.02623792 -0.09970884 -0.049763903
0.11146857 -0.0010913908 -0.062392697 -0.03868693 0.10683498 0.056144968 0.100148275 -0.067547545
0.12481342 0.03900461 -0.012206808 0.028153121 0.09112382 -0.11698498 -0.05030051 -0.102908164
-0.0921047 -0.0994778 -0.11236212 -0.11019936 0.04439637 -0.03203836 0.09104301 0.072410166
-0.07794917 -0.016407669 -0.013499513 -0.039839417 0.063674 0.094295055 0.09555063 -0.124271005
0.092590615 0.061592326 -0.08402994 -0.040165618 0.0032438487 0.11882734 -0.06951292 0.067166016
-0.009042069 -0.06968233 0.11719431 0.027160406 -0.070687056 -0.08475223 -0.10817577 0.09740396

lstm.weight_ih_l0 f4 [256, 64]
00000000: 50b9 623d 0014 e83c 14e6 8cbd 5003 20bc
00000010: a82a d83c 50c8 9dbd 6494 353d a039 233c
00000020: 1e72 d9bd cafd d5bd 64cb 6b3d e881 4abd
00000030: c03f 20bb 6040 a23d 34dc 45bd bc28 5a3d
00000040: 923a fc3d c0b2 31bb 9011 edbc 5049 2a3c
00000050: 883a 1bbd 5410 afbd c076 a5bc a4a7 a03d
00000060: fc53 983d 0057 20ba 5090 863c 50d0 d2bd
00000070: f423 f33d 2057 193c 8816 413d 7426 013d
00000080: 9881 c03d d2a7 fdbd 30c4 b6bd a048 38bc
00000090: fe93 cd3d 30f5 c23c d8df b13d 4858 3f3d
000000a0: 7cda cb3d d010 53bd 4052 0f3b 2a31 b8bd
000000b0: 18e9 d63d a63a c5bd 54aa cfbd 06fc a73d
000000c0: 5695 c2bd 7811 82bd 3e17 edbd 1ca0 7b3d
000000d0: cc5d eabd 6e52 953d 9abd a33d 482d 90bd
000000e0: f691 b93d d055 243c 8efe b3bd 6ea3 fe3d
000000f0: d6f9 993d 5013 a1bd 341d 133d c607 c9bd
00000100: ee1a d13d 0e2b 903d 1e62 be3d d47b a73d
00000110: c8d3 c5bd 4613 9abd 4622 ddbd 0c79 9d3d
00000120: 0452 64bd 60f2 87bd ea3d 973d 24a8 fe3d
00000130: 3c03 f3bd ee50 943d 8018 a73b c442 35bd
00000140: 10ee 8abd 780b e7bd 10f9 b8bd 78ed 67bd
00000150: c0f4 e1bd 2a9a eabd 10d4 6dbd e005 f3bb
00000160: 80c6 5e3c 18ef d53d f848 8cbc 62aa 90bd
00000170: 106e 59bd a65f 85bd 0840 f83d 3803 663d
00000180: 16cd 89bd 4005 7d3c a082 7c3c e0a6 c73c
00000190: f478 993d 6067 9bbc b618 8e3d 285d e33d
000001a0: 54f5 c6bd 3ab5 9d3d e00d 103d 246f df3d
000001b0: 2487 2a3d 0040 31b9 e0b3 ed3c f039 3e3c
000001c0: a855 a03c 62bd f8bd 6450 3abd 3a81 923d
000001d0: 702e 0c3c 003e d7ba 30df 92bd 6844 4d3d
000001e0: a65e 973d 460e e53d 0cb2 973d e084 d3bd
000001f0: 5657 d1bd e46b b33d d89b f4bd b411 3cbd
00000200: d42f dd3d e045 a2bb 1e10 ce3d 4c99 0c3d
00000210: 624f babd d8b5 8a3d f604 eb3d b4dc 2fbd
00000220: 941a 783d 8013 a0bb c09d 773d 4879 cd3d
00000230: 2ca6 603d 5c98 543d a4ca 38bd e85d ae3c
00000240: a08e 0e3c 2092 893c 7a8c ddbd 5cef d9bd
00000250: 86a5 8dbd 98d9 de3d 0ee0 d13d 6079 aabc
00000260: a087 e1bd 6087 063d 200c a3bb 90b5 f8bd
00000270: da29 fbbd 1c49 da3d a0c9 233c d4e9 82bd
00000280: 4854 333d b0c8 a13d f08e 07bc a6fc e0bd
00000290: d0f9 b7bc ee4b 96bd e464 e4bd 686c 1d3d
000002a0: ce90 a6bd a0e6 fb3d 4ac0 bd3d 18c3 fc3d
000002b0: 2095 743c f8c6 ec3c ac3c f43d cc73 9d3d
000002c0: faa2 d2bd 0059 2abd fce8 d5bd a463 3f3d
000002d0: 6eeb afbd ea70 e53d c480 ec3d 1a8d dbbd
000002e0: 2467 16bd 1234 ed3d accd e7bd 20ff 65bd
000002f0: 003c 95bb b0e5 8f3d e4e7 58bd 38ab cbbd
00000300: c8e6 333d 888d 90bd e0ed 083d 7283 98bd
00000310: 60bc 8e3b a4dd 0e3d a490 73bd dcc1 873d
00000320: 6e49 913d 2476 44bd 70a3 7f3d b290 b83d
00000330: 427a ad3d 600e d93d 62da 853d 5c0b 03bd
00000340: 407c ed3b d432 0fbd e265 d0bd 1c19 aa3d
00000350: f80c 59bd beb4 c93d 7079 bf3c de69 cc3d
00000360: 4885 acbc 401d 9a3d 3854 0d3d 946e 6abd
00000370: 3812 c9bc c40b d1bd 907e 44bd 90b8 d2bc
00000380: 346b f23d 380b ff3c ca74 bb3d 303b 67bd
00000390: 1ced b9bd c62c cabd 8444 df3d 806f f23b
000003a0: 8eb6 9bbd 30ce a6bd 86bf 87bd 801e 9bbd
000003b0: ecd2 b6bd 304e b7bd 04c3 8bbd 4479 8fbd
000003c0: de7a 833d aa45 8bbd 76c9 e4bd 582d 8b3d
000003d0: 0002 b6bc dcab 07bd bc49 13bd 12c2 b8bd
000003e0: 849c dabd 7698 8c3d 8070 78bc 5c4c cf3d
000003f0: 108b 16bd 7cb2 003d 10b8 283c d43d 193d
0.05535251 0.02832985 -0.068798214 -0.009766415 0.026387528 -0.07704222 0.04433097 0.009962469
-0.10617469 -0.10448797 0.057567015 -0.049440295 -0.002445206 0.07922435 -0.048305705 0.053261504
0.12315859 -0.00271146 -0.028939039 0.010393456 -0.037897617 -0.08548036 -0.020198226 0.07844475
0.07437894 -0.00061164796 0.016426235 -0.10293639 0.11872092 0.009359151 0.047140628 0.031530812
0.09399718 -0.12385525 -0.089241385 -0.011247784 0.10037993 0.023798555 0.08685273 0.04671505
0.09953782 -0.051529706 0.0021869093 -0.08993752 0.10493678 -0.09630327 -0.101399094 0.082023665
-0.0950114 -0.06350988 -0.11576699 0.06143199 -0.114436716 0.07291113 0.07995148 -0.07039887
0.09061043 0.010030225 -0.08788787 0.124335155 0.075183555 -0.07865012 0.035916522 -0.09815936
0.102102146 0.07039462 0.09296058 0.08177915 -0.09659535 -0.07523207 -0.10797553 0.076891035
-0.05574228 -0.06638026 0.07384856 0.12434414 -0.11865851 0.072419986 0.005099356 -0.044253126
-0.06783688 -0.11281484 -0.0903188 -0.056622952 -0.110330105 -0.11455186 -0.058063567 -0.007416472
0.013597131 0.10445994 -0.017124638 -0.07063748 -0.05308348 -0.06512384 0.12121588 0.056155413
-0.0672857 0.015443146 0.015412003 0.024371564 0.07493773 -0.018970191 0.06938307 0.111017525
-0.097147614 0.07700582 0.035169482 0.1090987 0.041632786 -0.00016903877 0.029016435 0.011610493
0.019572094 -0.12145497 -0.045486823 0.07153554 0.008555993 -0.0016421676 -0.07171476 0.050114065
0.073911 0.11184363 0.074070066 -0.10328078 -0.10221736 0.08760813 -0.11943787 -0.04591532
0.10800138 -0.0049521774 0.10061668 0.034325883 -0.09097172 0.06772965 0.114755556 -0.04293509
0.060572222 -0.004885137 0.060453176 0.10032898 0.054845974 0.051903114 -0.04511513 0.021285012
0.008700997 0.01679331 -0.108178094 -0.10641357 -0.06916337 0.108813465 0.10247813 -0.02080983
-0.110121965 0.032843947 -0.0049758106 -0.12144005 -0.12263842 0.10658476 0.009996802 -0.063922554
0.04378155 0.07899606 -0.008273825 -0.10985689 -0.022457987 -0.07338701 -0.11152056 0.038433462
-0.08133088 0.122998476 0.09265192 0.12341899 0.014928132 0.02890347 0.11925635 0.07688102
-0.102849916 -0.041588783 -0.10444829 0.046725884 -0.085898265 0.11203177 0.115479976 -0.10720272
-0.036719456 0.11582197 -0.11318526 -0.05615151 -0.0045542717 0.07026231 -0.052955523 -0.09944767
0.043921262 -0.07058245 0.03342998 -0.07446946 0.004355952 0.03487934 -0.059464112 0.066287726
0.07094084 -0.04796423 0.062411726 0.090119734 0.084705845 0.10598445 0.06535794 -0.031993255
0.007247478 -0.034960583 -0.101756826 0.083055705 -0.052990884 0.09848927 0.023373336 0.0998113
-0.021059647 0.0752511 0.034504145 -0.05723436 -0.02454482 -0.10207322 -0.047972262 -0.025722772
0.118368536 0.03113328 0.09153135 -0.05645293 -0.09078428 -0.09871821 0.1090174 0.0073985457
-0.07603179 -0.08144796 -0.06628327 -0.07574177 -0.08926949 -0.0895046 -0.06824306 -0.070055515
0.064199194 -0.06800397 -0.11171238 0.06795758 -0.02221775 -0.033122882 -0.03595899 -0.09021391
-0.10674384 0.06865017 -0.015163541 0.10121986 -0.036753714 0.031420216 0.01029779 0.03741248

lstm.weight_hh_l0 f4 [256, 64]
00000000: 8021 a43c c0c4 333b 281e c13c 7064 debc
00000010: a2c7 af3d 50ba cb3c a87d b3bc deef 993d
00000020: e0e3 8b3b 709b 2cbc a8df e03d 423f 95bd
00000030: 0050 d438 48b7 d93c 3c8a 663d 2431 003d
00000040: b671 f3bd 30e6 debd 22cc 993d 3036 5fbc
00000050: c090 353b f264 ca3d e4f8 ff3d 8454 e53d
00000060: 7077 f8bd 60b8 1f3c 709f a3bd 6c2b c8bd
00000070: 42fb e4bd 9857 debd 30bb 4a3d fc80 edbd
00000080: 64d8 28bd 2051 b53c 6026 a7bc 3c9f 2a3d
00000090: 8034 b53c a8b4 ef3c 0042 3b3c 9891 fabc
000000a0: d0dd dfbc b49c d53d f872 18bd 0008 aa3c
000000b0: c41a 0dbd 7469 88bd 10b2 9a3d 6071 14bd
000000c0: ac25 ffbd 269b d83d 8090 fe3c 064b 8bbd
000000d0: c856 853c 804e af3b 2ebe e3bd 7614 cb3d
000000e0: c836 d83c 1cef 21bd b0b5 d03d 4e0f f8bd
000000f0: 6890 2d3d 40e8 f9bc e07e ef3b 302f 17bd
00000100: ceb9 99bd d0e6 b8bd dea4 ebbd a84e 993c
00000110: a09a d43c f8f3 733d e404 e33d 94b8 3e3d
00000120: 8097 b63b 523f c53d 8006 ecba 6833 693d
00000130: d084 ed3c 52bf ed3d 4691 abbd 4410 b23d
00000140: c494 12bd eedd a5bd 0a4b 95bd 12bc c13d
00000150: b85d 5d3d f859 ea3d 6c5a 2a3d 3c2f febd
00000160: 4a08 aebd 0020 52bb 8487 e53d fa8c 81bd
00000170: e0e0 213c 2059 d53d f6b9 da3d d4f0 b73d
00000180: a499 fd3d 109f 71bc 2ce8 403d 40e3 d0bc
00000190: 1039 24bd 1c94 a23d 6422 aebd 60c2 a4bc
000001a0: 5e08 aa3d b2e8 d13d f030 babc 5645 9dbd
000001b0: 984b bfbd 68b8 a63c f817 e73c ecee 923d
000001c0: 4c3f d73d a0fc 003d f88b 81bc c038 46bc
000001d0: 4852 d63d 5af0 8f3d c2ac debd 8259 c4bd
000001e0: 6e6e d93d 5ad4 f83d 221b aa3d 70d6 6bbc
000001f0: 6cc6 6e3d 1894 983d f608 9d3d 7261 e1bd
00000200: f4ce e93d be9f a63d ec24 963d 3099 2dbc
00000210: 3453 de3d 067c f93d f2a5 fa3d ccce 143d
00000220: 5828 f73d 580a a9bd 26db e53d 1011 a6bd
00000230: 5897 ac3c 142e 6e3d a02e 87bc 9443 38bd
00000240: 0243 dc3d a07c f13d 7086 783d 8edf a13d
00000250: 8c4e ffbd 8095 033d 127b f0bd 9402 c9bd
00000260: 4604 f3bd c812 de3d b666 82bd 46df 89bd
00000270: 28bd f53d cc78 773d 34b4 d9bd 14aa 2cbd
00000280: 5003 b93d 009c 7eba 00d6 91bd 7657 e23d
00000290: bc55 ae3d 64e3 a13d 9c43 13bd 7a28 97bd
000002a0: 222e 903d aef8 d93d a8d9 f6bd 90fd 8dbc
000002b0: 909b 9f3c 608d 4f3d 04ef f9bd a8c4 fbbd
000002c0: 000a 1a3c fa77 833d a690 cc3d 2079 953c
000002d0: b477 f63d 4e20 d0bd 3c40 493d c493 fb3d
000002e0: d0a4 b53d 984b c8bc 7858 67bd f85d 4cbd
000002f0: 58f1 a03c d299 c9bd bacf e63d 24fa 1abd
00000300: 0c88 cb3d 4095 64bc e8d0 ce3d f4fc 123d
00000310: 7805 58bd 82aa f23d fe9a fcbd 8a40 823d
00000320: 907c 6bbc f2e4 e9bd 2201 ca3d b0fb 11bd
00000330: 08ea 76bd f200 c1bd ba28 843d 604c d13c
00000340: 8449 c9bd a04a e43c 8848 13bd e07d 5ebd
00000350: 04a4 d13d 0652 a1bd b08e fa3d 9e92 a23d
00000360: f0bc 383d 4698 81bd 8872 cb3d bc94 2c3d
00000370: ce92 c6bd 2aad e33d f09c 8e3c 2aff 86bd
00000380: 4273 c63d 80f6 f33d 645a 533d 8c56 0f3d
00000390: 70d9 d5bc 887b 123d 389d 9e3c f8a5 aa3c
000003a0: d080 6ebc be02 893d 8adf c5bd 8246 853d
000003b0: 6828 ffbc e0ad 7c3d c028 583b 2a6a 9f3d
000003c0: 70c5 d9bc 9c80 63bd d8e8 dd3d e29c b53d
000003d0: fc0b c63d 747e 5a3d 0e88 d6bd 98f1 9e3d
000003e0: 5689 fc3d e22d a43d 9011 633c 10bc 68bd
000003f0: 008b 0abb 60af 153d 88b0 bbbc 2cf1 733d
0.020035505 0.0027430505 0.02357395 -0.027147502 0.08582999 0.024869114 -0.021910504 0.07516454
0.004269108 -0.010535106 0.10980159 -0.07287456 0.00010123849 0.026576653 0.056284174 0.031296864
-0.11886923 -0.108837485 0.07509638 -0.013623759 0.0027704686 0.09882535 0.12498644 0.11197761
-0.12132156 0.009748548 -0.07989395 -0.09773907 -0.11180736 -0.10856551 0.049494922 -0.115968674
-0.04122199 0.02213341 -0.02040404 0.041655764 0.02211976 0.029260948 0.01142931 -0.030587003
-0.027327448 0.104302794 -0.037219018 0.020755768 -0.034449354 -0.066607386 0.07553494 -0.036240935
-0.12458357 0.10576467 0.031074762 -0.06801419 0.016276732 0.005349934 -0.11120258 0.09916012
0.02639331 -0.039534673 0.10190904 -0.12112294 0.042374045 -0.030506253 0.007308826 -0.036910236
-0.075061426 -0.09028399 -0.11506055 0.018714264 0.025952637 0.05955884 0.11084917 0.046562746
0.0055722594 0.09631218 -0.0018007308 0.05693379 0.028993994 0.11608757 -0.08377318 0.08694509
-0.035786405 -0.0809897 -0.07289703 0.094597 0.054044455 0.114429414 0.04159014 -0.12411353
-0.08497675 -0.003206253 0.11207488 -0.06325717 0.0098802745 0.1041739 0.106800005 0.08981481
0.1238282 -0.014747396 0.047096416 -0.025498986 -0.04009348 0.07938406 -0.08502653 -0.020112216
0.08302377 0.10249461 -0.022728413 -0.076792404 -0.0934059 0.020351604 0.028209671 0.07174477
0.1051012 0.031490922 -0.015813813 -0.012098491 0.10464913 0.07028265 -0.10872795 -0.09587385
0.10616766 0.12149878 0.083059564 -0.014394388 0.0582947 0.07450122 0.07667725 -0.11004914
0.11416426 0.08135937 0.07331261 -0.010595605 0.108557135 0.12181859 0.12238683 0.03633003
0.12068242 -0.08253926 0.1122344 -0.08108723 0.02106826 0.058149412 -0.016501725 -0.044986323
0.10754968 0.117913485 0.060675085 0.07903968 -0.124661535 0.032124996 -0.11742224 -0.09814945
-0.118660495 0.10843426 -0.06367247 -0.06732039 0.11998969 0.060417935 -0.10630074 -0.042154387
0.09033835 -0.0009712577 -0.071208954 0.11051838 0.08512446 0.079046994 -0.03595315 -0.07380767
0.07040049 0.10643135 -0.120532334 -0.017332822 0.019483358 0.050671935 -0.12203792 -0.122933686
0.009401798 0.06419368 0.09988527 0.018246233 0.1203455 -0.10162412 0.049133524 0.122840434
0.08869326 -0.024450108 -0.056480855 -0.049894303 0.019646332 -0.09843792 0.112700894 -0.03783621
0.09938058 -0.0139516 0.100984395 0.035885766 -0.05273959 0.11848928 -0.1233425 0.06359966
-0.01437296 -0.11420621 0.09863497 -0.03564042 -0.060281783 -0.094240084 0.064530805 0.025549114
-0.09828475 0.027867615 -0.035957843 -0.054319263 0.102363616 -0.07876973 0.12234247 0.07938121
0.04510206 -0.06327872 0.099339545 0.04213403 -0.096959695 0.11117013 0.017408818 -0.065916374
0.096899524 0.119122505 0.051599875 0.034994647 -0.026104659 0.03576234 0.019362077 0.020831093
-0.0145570785 0.06689976 -0.09661777 0.06507589 -0.031147197 0.061689258 0.0032983273 0.07783921
-0.026583403 -0.055542573 0.10835427 0.08867814 0.096702546 0.05334325 -0.10475169 0.07760924
0.12330882 0.08016564 0.013859168 -0.056819975 -0.002113998 0.036544204 -0.022911325 0.05955617

lstm.bias_ih_l0 f4 [256]
00000000: f8fa 363d 78af d7bc 9000 763c 8875 dbbc
00000010: 22d9 86bd 28c3 a7bd ec3d 33bd d86e c9bc
00000020: 1c39 463d 56f7 bfbd 7434 d3bd 60f0 04bd
00000030: a06e 71bd 105e e6bd bc7e 99bd ea14 9cbd
00000040: e4a8 38bd 20ac 7dbd c229 f33d 121b d73d
00000050: e441 c03d 9613 a6bd 50e6 ffbc c837 b53d
00000060: 006c 843a f2af 8abd 441b 0cbd a493 32bd
00000070: d0b2 263c 7a0c 933d 3e79 82bd c80d e2bd
00000080: 1efe acbd 00b6 29bc eea8 933d 4c2b a83d
00000090: 7853 de3c 643d d1bd 2065 ef3c 96ca a0bd
000000a0: c02d 633c 4a00 8cbd a054 dbbc 088e b8bc
000000b0: aa8a bf3d 6c3b a2bd d0f0 9cbd 1473 de3d
000000c0: c281 8ebd fa2f e7bd 169d c4bd d862 35bd
000000d0: 26a6 db3d 4c8d 4ebd aedf edbd 40a0 ea3b
000000e0: fa30 dd3d 04a2 b43d f67b 8f3d 88d1 a1bd
000000f0: 806e e5bc 20ed bbbd 788c e1bd 08dd d13c
00000100: c075 a4bd 305b 29bc 00f7 ac3d b602 e0bd
00000110: 28a3 2b3d 18d8 debd 588f e53c 546a df3d
00000120: 7636 c73d a022 92bb b2dc 9c3d d0b1 04bd
00000130: fc03 fbbd 6061 7f3d 2a56 993d 84ea 1b3d
00000140: 6c5b bcbd 9a53 a33d e839 783d f06c 573c
00000150: a880 523d 7ea0 f0bd 60ca fdbd d04b 293c
00000160: d882 08bd 22f0 b53d 3406 b33d fa03 cd3d
00000170: 1cbd 5dbd e0ae a33b 304a 50bd c696 97bd
00000180: b8e8 d5bd 5c66 b53d f4e2 543d 38cc 833d
00000190: e6bd c23d fc10 f2bd daaa e1bd 40bb e63c
000001a0: 006c fc3d c047 dd3c 701e 6b3c 4027 ab3b
000001b0: 28e9 bd3d 2016 2ebc 0c21 6d3d 92e9 9cbd
000001c0: 0239 f9bd f037 9f3d 00a5 9d3a 2003 953b
000001d0: 50de 1bbd eeac c23d ea2d 82bd cc83 0cbd
000001e0: 48f3 b33d 224c a73d 2c36 3e3d 6a74 8c3d
000001f0: e4b3 f13d 8677 843d 50c8 213d 38fd 203d
00000200: 108b 60bd 8c4f 1f3d 7c42 11bd 0693 b4bd
00000210: 00e9 e2bc c0c3 103c 4ab0 9cbd 086a df3c
00000220: 2445 21bd 0854 fbbc 9089 fa3c c0e9 d73c
00000230: 3824 0fbd 3287 ad3d ec5b aa3d 22d5 b03d
00000240: d407 5b3d 5836 7cbd 186e f03d 4acd 8bbd
00000250: 1c09 943d dca4 a23d 88c6 d23d e8a2 f13d
00000260: c4e0 e33d 78a6 803d 08aa b5bd 8801 f33c
00000270: b60b c9bd b87a 5bbd 681e 86bd 00fe 353d
00000280: 00bd 7fbb e017 9bbc 6e1b bd3d e0d7 2abc
00000290: 88d9 75bd 3484 1b3d e0b8 313d 96af b8bd
000002a0: e814 1bbd 2af4 d8bd 26f1 f6bd 7290 9cbd
000002b0: 2c14 f33d 068a d7bd 1003 143c 4884 eb3c
000002c0: 9c6b 29bd c04d 0a3c f4b3 253d b0a2 a4bc
000002d0: 40e3 cd3d 88ff b3bc b8f9 f6bc dc75 c93d
000002e0: 5031 7c3d c6c6 e53d 409a 233d 6067 b8bd
000002f0: 0017 31bb 72a5 ac3d 0089 ea3c 4c52 38bd
00000300: c0d0 883c 24c3 83bd 58af 6e3d 702a b33d
00000310: 0c2e d9bd 7aa1 b7bd c482 893d dcd8 be3d
00000320: 0846 88bc 08f8 533d 549a 7e3d ee44 90bd
00000330: fa92 e33d 00d0 923d 20cb ce3d fefd eb3d
00000340: 5857 43bd b421 fb3d f859 f0bc 9041 e5bc
00000350: 901f 993c b216 c53d 8c12 95bd d47b bebd
00000360: 98aa babd e825 bebd 0223 c43d ec52 403d
00000370: 6017 55bc c6e2 f23d 98d7 d0bc 10f3 da3c
00000380: 5647 9bbd e8bc ea3d 600a f03b a8f9 3fbd
00000390: 2cce d83d b20c 9dbd 7ecd 923d 0cdd 2ebd
000003a0: cc19 eabd 10fb a6bd 50f0 f73d 44f0 06bd
000003b0: 2272 aebd 3c2d 333d 0a0f cc3d 5443 5f3d
000003c0: 0814 a7bd 1454 4c3d 66a7 f9bd f837 e9bc
000003d0: 6ca8 f2bd ce2a dbbd ca2d 8cbd b2ad a03d
000003e0: 56ff e43d fc5d ec3d d405 acbd f016 16bc
000003f0: 5c8c 9e3d f0a2 af3d ba53 a03d 2066 26bc
0.044672936 -0.026328787 0.015014783 -0.026789442 -0.065843835 -0.0819152 -0.043760225 -0.024588987
0.048394307 -0.093733475 -0.10312739 -0.032455802 -0.05894339 -0.1124841 -0.07494876 -0.076211765
-0.04508294 -0.06193173 0.11873199 0.1050321 0.09387568 -0.081092045 -0.031237751 0.0884853
0.0010102987 -0.0677184 -0.03420569 -0.043597832 0.010174468 0.07180114 -0.06370781 -0.11037785
-0.084469065 -0.010358334 0.07209955 0.08211383 0.02713941 -0.102167875 0.029223025 -0.0785114
0.013865888 -0.06835993 -0.02677375 -0.022528663 0.0935262 -0.0792149 -0.07663119 0.10861793
-0.06958343 -0.11288448 -0.09600274 -0.044283718 0.1072505 -0.05042772 -0.11614929 0.0071602166
0.10800357 0.088199645 0.070060655 -0.07901293 -0.028006792 -0.091760874 -0.110131204 0.025618091
-0.080302715 -0.010336682 0.08445549 -0.10938017 0.041903645 -0.1088106 0.028022453 0.10908952
0.097271845 -0.004459694 0.07659282 -0.032396138 -0.12256619 0.062348723 0.074871376 0.03806545
-0.09197125 0.0797493 0.0606021 0.013148531 0.051392227 -0.117493615 -0.123921156 0.0103330165
-0.033327907 0.08883692 0.087414175 0.10010524 -0.054135427 0.004995212 -0.050852 -0.074018046
-0.10444778 0.08857414 0.051974252 0.06435436 0.095088765 -0.11819646 -0.110189155 0.02816546
0.12325287 0.027011752 0.014350519 0.005223185 0.09272987 -0.010625392 0.057892844 -0.076617375
-0.121690765 0.07774341 0.0012027323 0.0045474917 -0.03805381 0.0950564 -0.06356414 -0.03430538
0.087866366 0.08168818 0.04643838 0.06858142 0.118018895 0.0646811 0.039497674 0.03930399
-0.05482012 0.03889422 -0.035463795 -0.08817105 -0.027698994 0.008835733 -0.07650812 0.02727224
-0.03937258 -0.030679718 0.030583173 0.026356578 -0.03494665 0.08473052 0.08318314 0.08634402
0.053474262 -0.061575264 0.11739749 -0.06826265 0.072283 0.07941601 0.10291773 0.1179865
0.11126855 0.062817514 -0.088703215 0.029663816 -0.09816687 -0.05358383 -0.06548768 0.044431686
-0.0039022565 -0.018932283 0.092337474 -0.010427445 -0.060021907 0.037967876 0.0433892 -0.09017865
-0.037861735 -0.105934456 -0.12057714 -0.07644738 0.11869082 -0.10524373 0.009033933 0.0287496
-0.04136239 0.008441389 0.04045482 -0.020097107 0.1005311 -0.021972433 -0.030148372 0.09836933
0.061570466 0.11219554 0.039942026 -0.09004092 -0.0027021766 0.08429994 0.02862978 -0.04500036
0.016701102 -0.064337045 0.05827269 0.08748329 -0.10604486 -0.08966346 0.06714395 0.093187064
-0.016634956 0.051750213 0.062158898 -0.07044397 0.11112018 0.07168579 0.10097337 0.115230545
-0.04769072 0.12262288 -0.029339775 -0.027985364 0.018691808 0.096234694 -0.07278928 -0.09300962
-0.091145694 -0.09284574 0.0957699 0.04695408 -0.013006061 0.1185966 -0.025493428 0.02672723
-0.075819656 0.11461812 0.0073254555 -0.04686895 0.10586199 -0.07668437 0.07168101 -0.042691275
-0.114307016 -0.08153355 0.12106383 -0.03294398 -0.08517863 0.04374431 0.09963806 0.05450757
-0.081581175 0.04988487 -0.12190132 -0.02846907 -0.1184853 -0.10701524 -0.06844671 0.0784563
0.11181514 0.115413636 -0.08399549 -0.009160742 0.07741615 0.08576 0.078284696 -0.010156184

lstm.bias_hh_l0 f4 [256]
00000000: 00a6 4fbc 8483 933d 6c63 75bd 6206 fabd
00000010: 4495 00bd ccc5 97bd d8c9 3cbd de94 823d
00000020: ac7d bbbd b851 1a3d 140b 16bd c0a7 53bd
00000030: 8c65 fd3d 6c2b c1bd a819 3c3d 7816 a9bd
00000040: 1000 223c 0031 dfbb 98c4 4b3d 887a 7fbd
00000050: 4c52 c73d 5873 e6bc d0cd e8bc 089d c93c
00000060: d04d 6cbd 66ce ea3d a865 8b3d 0871 833d
00000070: 00ad ad3d 1008 3c3d d08f e33d c4b6 93bd
00000080: c8c5 d53d 642f 10bd 2884 fe3c 464a 97bd
00000090: 4875 74bd 0003 5c3b 24d8 cf3d a01b 46bd
000000a0: f4b5 1ebd d8fa fb3d c6c0 b83d 4036 59bc
000000b0: 3e71 9ebd 50e7 27bd 1e07 cebd 4416 333d
000000c0: 8434 d7bd c060 d93d a01e 013d 2c7c 9cbd
000000d0: b2a6 d63d 48c0 b83c 2878 d33d b8c2 fbbd
000000e0: 74ba a73d 6072 843b 8863 fe3d 9021 583d
000000f0: ac71 c6bd 4404 6b3d ea64 f73d 6405 cd3d
00000100: 70f6 54bd dc10 343d 5c36 8cbd 8885 9ebc
00000110: 42fa ec3d 7093 b83c 5452 853d 54c7 133d
00000120: 7e99 b1bd a640 9d3d f478 f0bd 1879 393d
00000130: 3694 a53d f2a9 db3d 6816 a0bc e80c aa3d
00000140: 70b2 553c 94e4 113d b0ec 7dbd 76d5 a3bd
00000150: a8bb 46bd 180d fd3c f8a6 cfbd a0ba a5bd
00000160: 08cb ae3d dc3c 013d b4d5 f3bd 2c49 253d
00000170: d45e 07bd 78cc f53d 90a5 eebd 8061 09bd
00000180: 8410 5bbd 40a6 783b b0e2 db3c c0a2 4ebc
00000190: 783d 3ebd 42b9 a4bd d056 10bc 4eda f6bd
000001a0: 144d 53bd 006c 913d 969d c1bd 6ce5 303d
000001b0: 288f e4bc be73 893d d053 053c b084 13bd
000001c0: 1eb6 91bd 06e3 8c3d 10a1 fc3c 746c 193d
000001d0: 586e 3bbd 6e65 febd 5612 993d 3ce3 24bd
000001e0: 1c6f aabd 567b 823d c47a 22bd b0b0 fe3d
000001f0: 34f0 c2bd c070 6fbc 90ca 443c 4e75 9ebd
00000200: 40a4 2ebb bc20 6a3d f0e0 19bc a824 5ebd
00000210: 2a9b ae3d a272 84bd 4818 a63c e88f dbbc
00000220: 64bd a3bd 54d7 d93d 020b ec3d 08e7 e73c
00000230: ec46 003d 60db b93b 6817 9e3c 70ca 753d
00000240: c486 e83d 50fb 223d ac4d 0cbd 1cb8 723d
00000250: f8af b5bc 40e7 833b 148f dbbd 5c53 88bd
00000260: 707d 723d 407b 51bc ee4f ee3d c082 cd3b
00000270: 22a8 c03d e4b9 f63d 2e68 e2bd 3ed4 cf3d
00000280: 00bd dabc 84fd 2e3d b0fa d03c be3a eabd
00000290: e043 c33b 5081 853c d424 3a3d 2076 f23d
000002a0: 18e2 9a3c 942a f2bd 90d9 3cbd 42eb 9ebd
000002b0: f013 c3bd fa15 febd 80d4 20bb be17 973d
000002c0: 56b6 b0bd 0a1a 9b3d 6a86 ac3d ac9c e3bd
000002d0: 1e33 cd3d 021a c93d 66aa a3bd a0fa 45bd
000002e0: ec6f 9dbd 3a10 9f3d c02e ab3d 442e debd
000002f0: ec7e a8bd 401a 31bc 0889 8fbd 7ae2 e3bd
00000300: b43a 353d fc2a 23bd ac3d 213d e278 ca3d
00000310: 881c fd3c 50ee 3a3c b0b5 26bc 64a8 b9bd
00000320: b04e a3bc 208a 863b dc29 1ebd 08d0 a4bd
00000330: 8243 bb3d 247d 803d c88d f0bc 144c 413d
00000340: d600 d73d 3475 06bd e044 b13d 3497 c1bd
00000350: 402c 973b 40ad 9b3b 8c02 59bd 5822 ba3c
00000360: 802a c93a 7c38 2d3d d809 8cbd 68e6 a7bc
00000370: 701c 383d 00e1 513d 6c88 af3d 4087 05bb
00000380: 70f7 d1bc d804 793d 40ad 69bb f82b 95bc
00000390: 2eec ddbd c018 1a3d 5854 32bd 840e 19bd
000003a0: 3cd3 52bd a44c 9fbd 48da ee3d 984c aebc
000003b0: 6052 b6bc 18d1 93bc f697 ee3d 401a b93b
000003c0: 00cb 133a 4888 ba3c 1ad7 9d3d 8c34 f13d
000003d0: 30ad e8bd 1a8f f4bd 9a43 bfbd 7a1b debd
000003e0: 124a e83d 009e b5bd 3693 bd3d a277 8fbd
000003f0: 201c f03d 4cfd 48bd 98c2 e9bc 5406 bdbd
-0.012673855 0.07202819 -0.05990927 -0.12208249 -0.03139235 -0.07410774 -0.04609093 0.063760504
-0.091548294 0.03767559 -0.03663166 -0.05167365 0.12372884 -0.0943211 0.045922905 -0.08256239
0.00988771 -0.006811261 0.049748033 -0.062372714 0.09732494 -0.028131172 -0.028418452 0.024611011
-0.057691395 0.11465149 0.06806499 0.064180434 0.08480263 0.045906126 0.111114144 -0.07212594
0.104381144 -0.035201445 0.031068876 -0.073872134 -0.05968216 0.0033571124 0.101486474 -0.04836619
-0.038747743 0.12303704 0.090211436 -0.013257563 -0.07736443 -0.04099208 -0.10059951 0.043722406
-0.105080634 0.10614157 0.031523347 -0.076408714 0.10481013 0.022552624 0.10325652 -0.12292999
0.0818986 0.004041955 0.12421328 0.052766383 -0.0968965 0.057377115 0.12079795 0.10010794
-0.051992834 0.04396139 -0.06846306 -0.019350782 0.115711704 0.022531241 0.065098435 0.036078766
-0.086718544 0.07678346 -0.1174182 0.0452815 0.080849096 0.10725774 -0.019541934 0.08303243
0.013043031 0.03561838 -0.0619933 -0.07999699 -0.048518807 0.030890033 -0.10139269 -0.080922365
0.08534819 0.03155218 -0.11905995 0.040352985 -0.03304942 0.1200189 -0.11652672 -0.03354025
-0.053482547 0.003794089 0.026841491 -0.012612045 -0.04644534 -0.080431476 -0.00880976 -0.12053357
-0.05158718 0.071006775 -0.09453885 0.043187544 -0.027900293 0.06711529 0.008137658 -0.036015213
-0.07114814 0.06879239 0.03083852 0.037456945 -0.04575953 -0.1242169 0.074742004 -0.04025577
-0.08321974 0.06371181 -0.03966786 0.12436044 -0.09518471 -0.014614284 0.012011185 -0.07737218
-0.0026648194 0.057160124 -0.009392008 -0.054234177 0.08525689 -0.06467177 0.02027525 -0.026802018
-0.07995108 0.10636774 0.11525537 0.028308406 0.031317636 0.0056719035 0.01929827 0.060007513
0.113538295 0.03979045 -0.03425376 0.05925761 -0.022178635 0.00402537 -0.10720649 -0.066565245
0.059201658 -0.012785733 0.11636339 0.00627169 0.09407069 0.120471746 -0.11055027 0.10147904
-0.02670145 0.04272224 0.025510162 -0.114369854 0.005959019 0.016297013 0.04544528 0.11838937
0.018906638 -0.118245274 -0.04610592 -0.077597156 -0.09525287 -0.124065354 -0.0024540722 0.07377575
-0.08628528 0.07573326 0.08424075 -0.11113867 0.100195155 0.09819414 -0.07991485 -0.048334718
-0.07687363 0.07766767 0.08358526 -0.10848668 -0.082273334 -0.010809481 -0.070085585 -0.11127181
0.044245437 -0.039835915 0.039365456 0.09886338 0.030897394 0.011409357 -0.010175154 -0.09065321
-0.019934982 0.0041058213 -0.03861414 -0.08047491 0.091437355 0.06273869 -0.029364482 0.047191694
0.10498206 -0.032826617 0.08655715 -0.09452668 0.0046134293 0.0047508776 -0.052980945 0.022721455
0.0015347749 0.042290196 -0.06837815 -0.020495608 0.044948995 0.051239967 0.08570942 -0.0020374805
-0.025630683 0.060795635 -0.0035656244 -0.018209442 -0.10836063 0.03762126 -0.043537468 -0.03736736
-0.05147098 -0.0777829 0.116627276 -0.021276757 -0.022256076 -0.01804404 0.11650078 0.005648881
0.00056378543 0.022770062 0.07707043 0.11777601 -0.11361158 -0.11941357 -0.09339066 -0.108450845
0.11342253 -0.08868027 0.09256594 -0.0700524 0.117241144 -0.049069688 -0.028535172 -0.092297226

lstm.weight_ih_l1 f4 [256, 64]
00000000: 605b b43c dcd8 393d 1807 dc3d 609f 813b
00000010: d0ee bc3d ac37 2c3d f05b 453c 6e8b aabd
00000020: b85b 713d 8015 f3ba 7e4b d73d b658 ef3d
00000030: a2e2 d0bd d0d0 013d 60dd 59bc 80e5 90bb
00000040: bea0 823d b8ab d33d fc7e c33d 7431 e13d
00000050: f8af 5cbd 80e3 c23d d816 c0bc 40ff e83b
00000060: 0e74 c13d 6a7b a8bd f486 9c3d 202f 33bc
00000070: e06b eb3b 7ee4 9ebd 404e 8dbc 2897 e4bc
00000080: 9c2b 1f3d 00f8 ffbc 0839 87bc a47c de3d
00000090: 94cf 093d 3477 62bd a0f7 ef3c 8e72 e43d
000000a0: 1690 f03d b865 0cbd 88c4 55bd 1856 d43d
000000b0: baf7 a13d 3c19 f03d b62d 90bd 0c7e 1e3d
000000c0: 80aa 1f3b 80ff bb3a 7ef9 df3d f4b1 77bd
000000d0: d0b4 16bc 22bc b5bd c0be 25bd 4029 423d
000000e0: 5cb2 273d 60b0 bc3b c0fe 18bd 8ab9 86bd
000000f0: 0837 f83c 76ce 8cbd 201c d33b 1c7e 15bd
00000100: f01a 483d d8cd e6bc e823 8b3c de9b 8a3d
00000110: 9abb 8cbd 9c47 f03d 60cb ddbb 4ebc 8d3d
00000120: f046 6b3d 1abf eabd 56ba 843d b8aa 8f3d
00000130: 2068 5e3c e89a 59bd f89f 27bd 2232 d5bd
00000140: d467 2e3d 04c3 e93d 1eac 833d e487 a33d
00000150: 300e 87bc 9666 a93d bc1f 36bd 30c5 143d
00000160: a69d 823d ae80 eb3d 284e e63c ec3b 18bd
00000170: 3008 843c 4038 3fbb da6a cf3d 20d2 a8bd
00000180: 7007 5a3c c42d 9e3d acc8 343d e438 11bd
00000190: 6297 d8bd 0019 63ba eeb0 be3d ec96 7c3d
000001a0: be24 8b3d 5235 94bd f8e5 a93c 0c3a 113d
000001b0: 943c 3f3d 8837 e6bc c068 b23c b8c9 cebc
000001c0: f41a 223d def8 93bd 4432 d03d d0aa 7dbc
000001d0: 206e 20bd 101e 13bd e089 623d a44f ac3d
000001e0: 9234 a6bd 5672 c23d 7aa9 bc3d d4d4 f5bd
000001f0: 9c3d 223d 90f5 c03c 408d 05bb 6a75 e9bd
00000200: 7086 25bd 7063 95bd 5854 2ebd d835 dbbc
00000210: 804d 51bc 08ed f6bc 9081 6f3d 88b3 23bd
00000220: 9018 5f3c 0485 2c3d b2fb babd 0009 163a
00000230: a079 6d3c c09d 4f3c 10c0 ee3d 02e0 d23d
00000240: 1c01 cebd 1af7 b5bd ac2c 61bd 105c 803d
00000250: c0bf 2e3d 8ca8 2bbd c824 f6bc ac8d fd3d
00000260: ce11 ae3d 90d6 d9bd 42bb 8c3d c088 643d
00000270: 6003 ba3d d8a6 bebc 901a 0cbd 30c5 e03c
00000280: f2d0 8a3d 848f 34bd 7ed5 cf3d 1431 8c3d
00000290: 0013 383d 6c98 6cbd 784a 53bd 1603 b7bd
000002a0: 5a80 c83d d807 8c3d e4f2 4ebd ec02 df3d
000002b0: 80c4 953b a073 923b 5487 ecbd 6eb7 adbd
000002c0: 043a 24bd a0c7 563d b855 b6bc 80b4 bdbd
000002d0: 1803 803d 7827 c03c bc2c b93d 6230 91bd
000002e0: 0487 87bd d462 65bd 3096 0fbd c89e 4bbd
000002f0: f812 acbd 3806 d9bd 009a 9739 16b5 a63d
00000300: d496 42bd 20dc 223c a841 80bd 285a a6bc
00000310: 486a 9bbd 4481 f13d 00e4 75bc aa39 f1bd
00000320: e833 cebd e29f 89bd acf5 193d 8218 b5bd
00000330: 74cc 80bd 30a7 713d 5859 9c3d 4457 e33d
00000340: 3ef1 a2bd 4078 643c 64dc f33d 8854 413d
00000350: 00e7 ddba c859 ebbc e0ee 80bc 9acb 87bd
00000360: 90f6 d1bd e849 10bd 1066 1a3c 3616 b93d
00000370: 94f4 40bd b0d7 ad3c d28a ad3d 70b7 5b3d
00000380: c6cd c03d 18cd 49bd 686a fabc 56f6 b73d
00000390: a0f0 ebbd 9287 ab3d 44cd a83d 64e8 6cbd
000003a0: 44e8 2ebd 102e 8fbc 3cfa 75bd 144c 2dbd
000003b0: daae bd3d c44a c53d f801 2b3d d2f1 a1bd
000003c0: 6458 113d 9455 0b3d cc6d 3abd 50a4 963d
000003d0: 22ee c03d 2423 acbd dc1a d83d 66e7 d6bd
000003e0: 689b d03c 1a87 9abd c8e3 853c 18e4 00bd
000003f0: d87d 8dbc 2c04 33bd b4cd d73d a07d 27bc
0.022016227 0.04537283 0.107435405 0.0039557666 0.09225237 0.04204528 0.012045845 -0.08327375
0.05892536 -0.0018545836 0.10512446 0.11686842 -0.10199477 0.03169328 -0.013297409 -0.00442189
0.063783154 0.10335487 0.09545705 0.109957606 -0.053878754 0.095160484 -0.023448393 0.0071105063
0.09445964 -0.08226664 0.07642928 -0.010936528 0.0071844906 -0.07758425 -0.017249227 -0.027904108
0.03885995 -0.031246185 -0.016506687 0.10863617 0.033645228 -0.055289462 0.029292881 0.11154662
0.11746232 -0.034276694 -0.05218938 0.103679836 0.07908578 0.11723563 -0.07039969 0.038694426
0.00243631 0.0014343113 0.10936259 -0.060472444 -0.0091983825 -0.08873774 -0.040465117 0.04740262
0.04094158 0.00575833 -0.037352324 -0.065783575 0.030299678 -0.06875317 0.0064425617 -0.03649722
0.048853815 -0.028174326 0.016984895 0.067680106 -0.0687172 0.117324084 -0.006768629 0.06920682
0.0574407 -0.11462231 0.06480853 0.07014984 0.01357463 -0.053126246 -0.040924042 -0.10409953
0.042579487 0.114141494 0.06429313 0.079849035 -0.016486257 0.0827152 -0.044463858 0.036320865
0.06377725 0.11499153 0.02811344 -0.03716652 0.016117185 -0.0029177815 0.10127802 -0.08243203
0.013307437 0.07723573 0.044136688 -0.035454646 -0.10575749 -0.0008663088 0.093110904 0.061667368
0.067941174 -0.072367325 0.02073954 0.03545575 0.04668863 -0.028102651 0.021778464 -0.025242671
0.039576486 -0.07225202 0.101658374 -0.015482619 -0.039167523 -0.03591734 0.05530727 0.08413628
-0.08115496 0.09494464 0.092120126 -0.12003484 0.039609537 0.023554593 -0.002037838 -0.11399348
-0.040411413 -0.07294357 -0.042560905 -0.026759073 -0.012774825 -0.030142322 0.05847317 -0.039966136
0.013616696 0.04211904 -0.09130038 0.0005723387 0.01449433 0.012671888 0.11657727 0.10296632
-0.10058805 -0.088850215 -0.054974243 0.062675595 0.042663336 -0.041908786 -0.030046836 0.123805374
0.0849949 -0.10636628 0.06871654 0.055794477 0.09082675 -0.023272917 -0.03420502 0.027437776
0.067781344 -0.04408218 0.10148142 0.068452984 0.044939995 -0.05776255 -0.05158469 -0.089361355
0.09790106 0.068374336 -0.050524607 0.10889229 0.0045705438 0.00446935 -0.11549249 -0.08482252
-0.04009439 0.05243647 -0.02225767 -0.09262943 0.0625059 0.02345632 0.090417355 -0.070893064
-0.06617549 -0.056002453 -0.03505534 -0.049711972 -0.084020555 -0.10596889 0.00028915703 0.08140008
-0.047507122 0.009940177 -0.06262523 -0.020306662 -0.07588631 0.117922336 -0.015007973 -0.11778577
-0.10068494 -0.06719948 0.037587807 -0.08842565 -0.06288996 0.058997333 0.076342285 0.11100629
-0.079561695 0.013944685 0.119072706 0.047199756 -0.0016929805 -0.028729334 -0.015738904 -0.06630631
-0.10252106 -0.035226732 0.009423748 0.090374395 -0.047108248 0.021221012 0.084737435 0.053641737
0.09414248 -0.04926786 -0.030568317 0.08982532 -0.11520505 0.08375467 0.08242276 -0.057838812
-0.042701975 -0.017478019 -0.060053095 -0.042308882 0.09261866 0.09633401 0.041749924 -0.07907452
0.035484686 0.03401716 -0.045514867 0.07355559 0.0942042 -0.0840514 0.10551998 -0.104933545
0.025464728 -0.075453 0.016343966 -0.031467527 -0.017271921 -0.04370515 0.10537282 -0.010222822
